backend/models/best_model_v3.pth (torch, 20525 bytes, 18 tensors)

bn_input.weight f4 [12]
000000 36 97 63 3f 1e a4 64 3f 4b 33 6d 3f 66 97 6b 3f
       0.88902605 0.8931292 0.9265639 0.9202789
000010 e3 83 74 3f af 05 81 3f e0 c3 8a 3f 1f 9c 91 3f
       0.95513743 1.007986 1.0841026 1.1375769
000020 8f 1b 8f 3f bd ed 8c 3f 72 8c 64 3f 7d 6a 70 3f
       1.1180285 1.1010052 0.892768 0.9391249

bn_input.bias f4 [12]
000000 ca 3d 0a b8 b3 b7 42 3b 91 80 e8 3a 50 95 af 3b
       -3.295931e-05 0.0029711544 0.0017738511 0.0053583756
000010 59 ed ce 3b 67 dc ba 3b 4a 9a 88 3b 63 36 37 bc
       0.006314915 0.0057025435 0.0041687833 -0.0111824
000020 e5 ea 89 bb c0 96 82 3b 27 ac 2f bb 1b ff 9d bb
       -0.00420891 0.003985256 -0.0026805492 -0.0048216707

bn_input.running_mean f4 [12]
000000 6e 24 3e be 3e b9 4f be 88 e6 19 3e 32 fc f7 3e
       -0.18568584 -0.20285508 0.15029347 0.48434597
000010 5a 6a fd 3e d0 a0 0a 40 68 56 17 3e a2 e6 17 3e
       0.49495202 2.1660652 0.14779055 0.14834073
000020 1b c6 48 3f bd 08 5a 3f c5 f5 21 40 4a 61 19 40
       0.78427285 0.85169584 2.5306256 2.396563

bn_input.running_var f4 [12]
000000 1c fc 9b 43 6f f9 07 44 8b 6b 97 42 79 b7 9e 3d
       311.9696 543.8974 75.710045 0.077498384
000010 13 91 b2 3d 61 16 14 40 f6 75 f7 3b ee d4 ee 3b
       0.08719077 2.313866 0.007551904 0.007288567
000020 79 9d b6 3c 9c 81 ec 3b be c9 fe 3f 35 35 03 40
       0.022291886 0.007217599 1.9905317 2.0501225

block1.0.weight f4 [64, 12]
000000 aa 9e 0a 3e 17 33 8a 3e 13 9f a6 be 6e 25 53 3e
       0.13537088 0.26992103 -0.3254324 0.20619747
000010 83 59 67 3e 81 72 10 3e 71 6b 48 be 94 8b 32 3e
       0.2259274 0.1410618 -0.19572236 0.17436057
000020 19 8a 65 be ca 61 38 bd db 42 28 be 6c d9 86 3c
       -0.22415961 -0.045015134 -0.16431753 0.016461097
000030 70 d7 06 bd 1d 86 34 3e 1d d6 ca 3d d2 d3 84 3e
       -0.0329203 0.17629285 0.0990412 0.25942856
000040 3c 76 a7 bc af 30 fd bd 8a 05 c8 3d cc c5 0e 3f
       -0.02044212 -0.12362801 0.097666815 0.55770564
000050 2e 92 2d 3e 28 f9 2c 3e 1c 07 40 bd 5b 69 40 3e
       0.16950294 0.1689192 -0.04688178 0.1879019
000060 26 d3 97 3d 64 8a 21 be 21 26 05 be 0d ab 36 3e
       0.0741332 -0.15775448 -0.13002826 0.17838688
000070 3a 69 28 bb 97 57 3c be 99 98 1e 3e 37 1d df 3d
       -0.0025697486 -0.18392788 0.15487899 0.10894244
000080 e8 94 84 be 25 38 66 be c3 d4 93 3e 73 c0 0e bd
       -0.25894856 -0.22482355 0.28873262 -0.034851503
000090 95 b5 11 bd 62 d7 1d 3e c7 b1 95 bc 58 43 82 3e
       -0.03557356 0.15414193 -0.018273247 0.25442004
0000a0 0b e5 ad 3c e1 05 bd bd 04 5f 90 be 05 16 20 be
       0.02122738 -0.09229637 -0.2819749 -0.156334
0000b0 c7 81 f4 3d 7b 31 b5 3e f6 6a 40 3e fa 4e 08 3e
       0.119388156 0.35389313 0.18790802 0.13311377
0000c0 01 19 8a bc 50 77 90 3e 8d 38 6e 3e 1d ab 7f 3e
       -0.016857626 0.28216028 0.2326376 0.24967618
0000d0 90 77 99 3d 91 79 de bd 91 63 71 3e 1f 09 a2 3d
       0.07493508 -0.10863031 0.23573138 0.07911896
0000e0 a8 c1 18 3d 5b 66 d8 3d 81 c2 37 3e 77 34 a1 be
       0.03729406 0.10566398 0.17945291 -0.3148534
0000f0 cc e7 7c 3d b8 26 e7 ba 9b 5f 37 be 3f 99 7b bd
       0.061744496 -0.001763544 -0.17907564 -0.061425444
000100 7f 49 8b 3d a9 5e 25 be c3 da 88 3e 83 d7 9d 3e
       0.06801128 -0.16149391 0.26729402 0.30828485
000110 6a e4 53 3e 32 8c 25 be 4b 53 c2 3d 9f 89 22 be
       0.20692602 -0.16166762 0.09488543 -0.15872811
000120 aa d9 12 bd 33 ae 89 be e5 fc 9d bd e1 38 87 3e
       -0.035852112 -0.26890716 -0.077142514 0.26410583
000130 41 01 46 3e 0f 6e 23 3e e2 40 b7 3e 9b a5 0b 3d
       0.19336416 0.15959953 0.3579169 0.03409348
000140 1c cf 04 3e 90 dd a7 be 19 87 ac 3d c6 93 84 3e
       0.12969631 -0.32786226 0.08424205 0.25893992
000150 2a b6 68 be 56 21 e1 be 7b 30 02 bf 3a 32 da be
       -0.2272574 -0.43970746 -0.50855225 -0.42616445
000160 98 a2 13 bc f3 2b cb 3d b9 ca 4a 3e cb 80 27 3d
       -0.009010933 0.09920492 0.19803895 0.04089431
000170 31 ce 3e 3e 0a 94 eb 3d 9b 1c 8f 3e 13 49 03 be
       0.18633343 0.115028456 0.27951512 -0.12820844
000180 1c e9 07 3e ea e6 18 3e 19 f7 96 bc 29 31 45 be
       0.13272518 0.14931837 -0.018428372 -0.19257034
000190 d1 49 73 3a 94 bc 09 3d f2 2f ac be dc 5a 63 3d
       0.0009280714 0.033627108 -0.3363033 0.055506572
0001a0 85 fb 77 3e 1b 75 04 3c 83 3c 39 bc 38 f7 9d bd
       0.24217041 0.008084561 -0.011305931 -0.07713169
0001b0 de 1c 3b be b3 ad 09 3e 09 c6 23 3d 53 2d 7f 3d
       -0.1827273 0.13445167 0.039983783 0.062299084
0001c0 7f 47 84 3d 30 c6 a4 3d 43 40 cb bc e0 57 05 be
       0.06458949 0.08045614 -0.024810916 -0.13021803
0001d0 8d 97 43 3e fb 5c 80 3e 93 d9 00 bd ad 89 33 3d
       0.19100781 0.25070938 -0.031457495 0.04383247
0001e0 c9 1e fd 3b 34 19 21 3e 34 dc 8c be 5d e4 11 3d
       0.007724617 0.1573227 -0.27511752 0.035618175
0001f0 31 5e a3 3d 8e 91 6f 3e 45 e8 02 bc 4b e3 ad be
       0.0797695 0.23395368 -0.007989948 -0.33962473
000200 e7 cf 82 3e 83 1f a0 3b 5d 96 a5 3e c8 68 62 3d
       0.25549242 0.004886569 0.3234128 0.05527571
000210 d1 df 1b 3d a5 9f 8f 3c 37 ff 24 be ef 19 de 3d
       0.038055245 0.01753218 -0.16112982 0.1084479
000220 46 58 78 3e 47 c4 de bd a3 df 4b be 39 1d a4 3d
       0.24252424 -0.10877281 -0.1990953 0.08013386
000230 18 54 17 be be a5 b5 bc 8d 48 12 bc b3 12 1f be
       -0.14778173 -0.022173759 -0.00892843 -0.15534477
000240 d7 4a 7e 3e 36 cb ba bd d1 98 7a 3e 59 6d 1c bb
       0.24833237 -0.09120791 0.24472357 -0.0023868887
000250 06 48 83 3e b7 d2 90 bd cd 30 d4 3d 97 c6 4a 3e
       0.25640887 -0.07071441 0.103608705 0.19802319
000260 ed 17 f3 be 41 37 25 3e 21 30 1d be 8d f6 9e bd
       -0.4747919 0.16134359 -0.15350391 -0.077618696
000270 38 b6 be 3d 35 39 00 bd 7b bd ef 3d b6 2f d8 bd
       0.09312099 -0.031304557 0.117060624 -0.10555975
000280 5f 96 3d be 88 1c 3a be a6 f8 c6 3e 1a c0 db 3d
       -0.18514393 -0.18174946 0.3886158 0.1073
000290 5f 40 d0 ba cf a8 0d 3e aa f0 c1 3c c7 2d 26 3d
       -0.0015888325 0.13833927 0.023674328 0.040571
0002a0 36 d0 32 3e fe 37 30 be 26 e9 2b 3e 9c b2 bd bd
       0.17462239 -0.1720886 0.16788158 -0.09262583
0002b0 a7 d2 6c bc c8 23 86 bd 30 12 dc 3d 0f 67 82 3b
       -0.01445452 -0.065497935 0.107456565 0.0039795707
0002c0 4a ff 9d be 1b 23 26 bd de 74 c7 3d a6 e2 4c 3e
       -0.30858833 -0.040560823 0.097390875 0.20008335
0002d0 aa 20 40 3d a7 f9 65 bd 8b 3d 83 bc 46 c1 8a bc
       0.04690615 -0.05614629 -0.016020557 -0.016937863
0002e0 1c a5 79 bc fc b1 03 3e b5 c4 9e 3c 1d ec 83 be
       -0.015237119 0.12860864 0.019380907 -0.25766078
0002f0 d7 8e 07 3e 8b de 27 bd 97 5b 32 be c7 3f f9 3d
       0.13238083 -0.040983718 -0.17417751 0.12170368
000300 ea a8 6a be 92 fa 6a be 87 a6 94 bc 0d 88 22 be
       -0.22915998 -0.22947147 -0.018145813 -0.15872212
000310 21 cc 31 be 04 e7 14 3d fe 7e 00 3e 18 3e 98 3e
       -0.17363025 0.036353126 0.12548444 0.29734874
000320 e4 a0 f9 be 1c be 36 be 1b f2 ad bc b6 7e c7 be
       -0.48755562 -0.17845958 -0.021233609 -0.3896386
000330 bf 43 81 bd df ec 8b be 26 8a 13 3e 94 1b 3f be
       -0.0631175 -0.27329156 0.14408168 -0.18662864
000340 9a 3d 5d 3e 7e 11 2a be 25 98 cd bd 2b 4a fd bd
       0.2160553 -0.16608235 -0.10038785 -0.12367662
000350 d5 3b 49 bd b2 ba 2b 3e 23 1e ab 3c 51 06 60 3e
       -0.049129326 0.16770437 0.020888394 0.2187741
000360 7a 84 c3 bd 50 76 41 be 30 27 16 bd e6 fd 6b bd
       -0.09546752 -0.18892789 -0.036658466 -0.057615183
000370 d3 66 83 3d de 1c 23 bd 4f 77 b4 3e 10 9c 60 3e
       0.064160965 -0.03982245 0.35247275 0.21934533
000380 d9 ea f6 bc 8b 6b 8b be 1f 60 00 3e fc 1f 7a bd
       -0.030141281 -0.27230486 0.12536667 -0.06106566
000390 6d aa 64 3e b6 d7 2a be e3 f7 00 be d8 b2 d9 bd
       0.22330637 -0.1668385 -0.12594561 -0.10629815
0003a0 96 b0 e7 bd f3 33 91 3e fa 9e 23 3d c9 91 6b be
       -0.11312978 0.28359947 0.039946534 -0.23004831
0003b0 2e 82 77 3d a0 51 88 3e ba b0 8a bd a7 3d 24 3d
       0.060426883 0.26624775 -0.06771989 0.04009786
0003c0 cb 98 42 3e 7e d8 6f be aa 80 50 bd b5 c0 69 3e
       0.19003598 -0.23422429 -0.050903954 0.22827418
0003d0 d5 72 61 3e 2a 32 d4 bb 6b 41 74 3e e2 ca 7d be
       0.22016461 -0.0064757066 0.2385308 -0.24784425
0003e0 25 d1 87 bd 1a 84 5b 3e b9 48 3a 3e 08 17 25 3d
       -0.06631688 0.21437111 0.18191804 0.040305167
0003f0 36 9c a9 3d 1f af 99 3e 9a 89 13 3e 11 cd 01 be
       0.08281748 0.3001642 0.1440796 -0.12675883

block1.0.bias f4 [64]
000000 e8 18 1e ba 39 01 19 bb a0 17 35 ba 88 ce b8 ba
       -0.0006030933 -0.0023346676 -0.00069081225 -0.0014099637
000010 8e 63 c2 b7 59 e7 a9 bb 04 04 25 3b e3 15 fa 3a
       -2.3172961e-05 -0.0051850495 0.0025179395 0.0019080009
000020 15 e8 81 bb 27 9a de b8 4b 29 a5 b8 56 f6 db 38
       -0.003964434 -0.00010614498 -7.8755045e-05 0.000104886174
000030 cf 78 91 3a 84 4e 3f bb 30 a1 c0 38 90 7e f6 39
       0.0011098626 -0.0029191086 9.185297e-05 0.00047015073
000040 cf 95 0c bb 8a 2b 5d 38 37 5b 85 ba 50 f4 66 b9
       -0.0021451598 5.2731055e-05 -0.0010174279 -0.00022025523
000050 9a 6c 93 3b a8 e6 54 bb b5 7c f1 ba d5 b4 8c 3a
       0.0044990303 -0.0032486115 -0.0018424006 0.0010735044
000060 2e ef e2 b9 aa 8d 0f 3b 76 55 be 3a 20 da e2 b8
       -0.00043284282 0.0021904507 0.0014521319 -0.00010817149
000070 07 7d be ba 2d a4 51 b9 ab b5 29 bb c3 ad 70 3b
       -0.0014533111 -0.00019992953 -0.0025895636 0.0036724664
000080 c6 9d 2e 3b 0b 08 92 3b b2 a6 4e ba 22 c9 df 39
       0.0026644333 0.004456525 -0.0007883116 0.0004268373
000090 c7 ff b2 39 93 9c 1f 3b 2e 00 0e ba 18 63 9d 3a
       0.00034141375 0.00243548 -0.0005416897 0.0012007682
0000a0 03 5c c2 3b 2a 3f f7 3a c5 b0 93 3a d4 b8 60 b9
       0.005931379 0.0018863429 0.0011267891 -0.00021431159
0000b0 b3 e4 61 bb 62 65 90 b9 49 b1 05 3b 30 dd 7f bb
       -0.003446859 -0.00027541356 0.002039986 -0.003904175
0000c0 e0 91 9e 3b 40 af a4 ba 83 96 02 ba 77 df 0b bb
       0.004839167 -0.0012564436 -0.00049815344 -0.0021342912
0000d0 a7 2b f0 ba 21 df 13 3b b4 b9 ac 3b 21 13 a6 ba
       -0.0018323556 0.0022563415 0.005271161 -0.0012670496
0000e0 7b 92 ab 3a c5 46 e0 39 e4 3b 78 ba 81 b3 1c ba
       0.0013089919 0.00042777337 -0.00094693736 -0.0005977676
0000f0 7a 4e 00 bb 1a 4c 20 3b d2 16 8e 3b df 8f 71 ba
       -0.0019578026 0.0024459423 0.0043362165 -0.0009214859

block1.1.weight f4 [64]
000000 6e b7 79 3f 75 0f 79 3f ff 5b 89 3f 35 6a 89 3f
       0.97545516 0.9728921 1.07312 1.0735537
000010 7c c7 6b 3f 87 8f 86 3f 18 1d 77 3f 39 18 77 3f
       0.92101264 1.0512551 0.9652877 0.96521336
000020 e0 a4 86 3f a5 19 87 3f d8 17 83 3f 78 ed 6e 3f
       1.0519066 1.0554701 1.0241652 0.933311
000030 0f fd 75 3f ff ae 87 3f c0 88 7a 3f 8d db 81 3f
       0.9608926 1.060028 0.97864914 1.0145127
000040 20 4c 84 3f c1 df 72 3f 39 d4 89 3f 27 15 86 3f
       1.0335732 0.9487267 1.076789 1.0475205
000050 91 da 7d 3f c6 d3 76 3f 55 20 89 3f c8 ae 88 3f
       0.9916163 0.9641689 1.0712992 1.0678339
000060 51 ff 82 3f 24 e1 87 3f 9a 76 80 3f cd 78 86 3f
       1.0234166 1.0615582 1.0036194 1.0505615
000070 25 f6 82 3f 8c 8a 6a 3f 77 1a 71 3f 47 06 70 3f
       1.0231367 0.91617656 0.9418101 0.9375958
000080 7f ec 73 3f d5 9f 88 3f 5a 5c 7a 3f 7c 01 8d 3f
       0.9528274 1.0673777 0.9779717 1.1016078
000090 06 f5 85 3f 20 f3 6d 3f d5 a8 81 3f 8b 62 77 3f
       1.04654 0.92949104 1.0129648 0.9663474
0000a0 76 17 75 3f 90 89 73 3f a6 73 72 3f 96 19 81 3f
       0.95738924 0.9513178 0.94707716 1.0085933
0000b0 2b 22 7b 3f 7c e0 83 3f fd 43 70 3f c9 b8 77 3f
       0.9809901 1.0302882 0.9385374 0.96766335
0000c0 63 86 7a 3f 21 45 7b 3f 76 70 79 3f c3 32 83 3f
       0.9786131 0.9815236 0.97437227 1.0249866
0000d0 0a dd 7b 3f f2 e8 7b 3f ad 4c 6b 3f 3c c3 8b 3f
       0.98384154 0.9840232 0.9191387 1.0918956
0000e0 29 b3 77 3f 2c 6b 82 3f 3e 33 81 3f 00 45 72 3f
       0.9675775 1.0188956 1.0093763 0.94636536
0000f0 9c 78 72 3f f8 12 75 3f 87 f7 78 3f 13 33 82 3f
       0.94715285 0.9573207 0.97252697 1.0171837

block1.1.bias f4 [64]
000000 11 7c 8a bc 1a f6 1f bd 11 85 11 bc 31 88 11 3d
       -0.016904863 -0.03905306 -0.008881823 0.035530273
000010 68 45 4e bd bf c8 23 3d cc 63 fd bc 27 a9 82 bc
       -0.05035916 0.03998637 -0.030931376 -0.015949799
000020 0a 99 59 3d 1c 22 87 3a a5 c8 9a 3c 21 3f 0e bd
       0.053124465 0.0010309848 0.018894503 -0.034728173
000030 96 fa 50 bd 62 fc 89 3c 29 dc 10 bd cc 5e 9c bc
       -0.051020227 0.016843978 -0.03536621 -0.019088171
000040 41 90 0d bd 23 2a fd bc 04 8a 1c bb a7 61 e1 bc
       -0.0345614 -0.030903881 -0.0023885975 -0.027512385
000050 00 4a 16 bb d3 09 b0 bc 49 23 e7 3c 77 3e fe 3c
       -0.002293229 -0.02148906 0.028215067 0.031035645
000060 1f 7f 44 bd be 60 3a bd 85 b6 fe bc 0c 66 53 3d
       -0.047972795 -0.045502417 -0.031092891 0.05161099
000070 8b 9a 0d 3d b2 01 88 bd ad 17 6c bd 21 ac 61 bd
       0.03457121 -0.06640948 -0.057639766 -0.055095796
000080 ea 99 41 bd 11 a9 c4 bc 26 7b 10 bd ba fc 1e bd
       -0.047265925 -0.024006398 -0.035273694 -0.038815238
000090 3b 20 ea bc ca a0 69 bd d0 00 3b 3b 44 e7 c0 bc
       -0.028579822 -0.057038106 0.002853442 -0.023547776
0000a0 20 5a ae bc 7c b9 27 bd f5 71 66 bd 4f 98 33 3c
       -0.02128321 -0.040948376 -0.05626102 0.010961606
0000b0 bb 0c f6 3b e3 67 fe 3c 0f e2 59 bd bd d7 e7 bc
       0.007508842 0.031055396 -0.053194102 -0.028301114
0000c0 fd f4 07 bd ae cd c2 bc c9 23 8b bb 92 e7 0b 3c
       -0.033192623 -0.023779716 -0.0042462093 0.008539097
0000d0 fc 3c 79 3a 67 39 85 bc 52 2d da bc 2c e3 9d bc
       0.00095076836 -0.016262723 -0.026632939 -0.019273363
0000e0 95 cf fa bc 8e 24 a7 3c 52 41 fc 3b ba d7 33 bd
       -0.030616561 0.020403173 0.0076982165 -0.043906905
0000f0 fa 1b 01 bd aa 0b 30 bd 34 4f aa bc 3b 5d 0b 39
       -0.03152082 -0.042979874 -0.02078972 0.00013290804

block1.1.running_mean f4 [64]
000000 25 9c 50 3a 7a 38 f9 bb c0 05 16 bb 98 e9 82 38
       0.00079578377 -0.0076056095 -0.002289161 6.242393e-05
000010 f2 dd 65 3b 17 ba 0f bc 6d bc 5a 3b cb 6a fe ba
       0.0035074917 -0.008772395 0.003337647 -0.0019410489
000020 61 b7 dd bb 0a 16 36 3b 0e f4 5f 3b 6e f3 a1 3a
       -0.0067662452 0.0027784132 0.0034172568 0.0012355873
000030 97 bf 83 3b a9 aa ab bb 14 0c 72 ba 2d 6e 2c 3b
       0.004020642 -0.00523885 -0.0009233367 0.0026310787
000040 56 f7 7c bb e9 a0 02 ba 77 7b 4c bb e8 36 2a 3b
       -0.0038599572 -0.0004983084 -0.003120152 0.0025972668
000050 06 d5 23 3c 1c eb 77 3a 9e 72 86 bb 52 d7 8b 3b
       0.009999519 0.0009457336 -0.004103019 0.0042676115
000060 ac e7 9a ba 2e 61 c1 3b bf 16 9b ba 93 d7 c1 ba
       -0.0011818311 0.0059014773 -0.001183234 -0.0014788978
000070 d3 fd dc ba 85 08 9c bb 2e bc ca ba ff c0 ca 39
       -0.0016860313 -0.004761758 -0.0015467459 0.00038672236
000080 f8 83 58 3b fc 60 57 3b bc ff 5c 3b 3d a0 15 3b
       0.0033037644 0.0032864204 0.0033721766 0.0022831105
000090 b6 21 e3 39 8f c9 b4 3b b6 87 8b b8 f0 da 22 3b
       0.0004332193 0.0055171917 -6.6533146e-05 0.0024849735
0000a0 8b 18 e6 3b 24 76 ed 39 0b 0e ed 39 7e ed 17 3c
       0.0070219687 0.00045292184 0.00045214625 0.009272931
0000b0 8c 58 d8 ba b2 c0 34 3b 64 32 e5 3a d8 b7 ad bb
       -0.0016505881 0.0027580676 0.0017486331 -0.005301457
0000c0 bb bf db 3b f4 72 81 bb 59 50 61 bb 95 c2 25 3b
       0.0067062057 -0.003950471 -0.0034380166 0.0025292982
0000d0 ab 44 77 bb 34 b2 b7 3b 81 b9 0e 3c da 4f 38 3a
       -0.0037730138 0.0056059603 0.00871122 0.0007030942
0000e0 59 bc a2 3a ec 54 e9 39 bc 71 3e bb 88 11 f0 ba
       0.0012415751 0.00044504495 -0.002905949 -0.0018315772
0000f0 2d 1d 95 bb fc 6a 9a 3b 7c b2 de 3b 86 6c 95 ba
       -0.004550597 0.0047124606 0.0067961793 -0.001140014

block1.1.running_var f4 [64]
000000 72 09 97 3e e1 1b cd 3e 23 4c 8b 3f 09 80 6b 3f
       0.29499394 0.40060332 1.088261 0.9199224
000010 55 44 c1 3e dc 69 1c 3f 08 dc ec 3e c4 7b 33 3f
       0.37747446 0.6109903 0.4626162 0.70110726
000020 ff 42 d7 3e 36 27 15 3f 86 cc 76 3f 69 da 10 3e
       0.420433 0.58262956 0.9640583 0.14145817
000030 08 92 3a 3f 5b b3 d1 3e 36 92 e3 3e 9d 1c 93 3e
       0.72879076 0.4095715 0.44447488 0.28732768
000040 4f d0 c6 3f ce a1 84 3e d3 0a 7f 3f e6 27 47 3f
       1.5532321 0.25904697 0.9962589 0.77795255
000050 27 23 81 3e a3 33 a3 3e bb db 4d 3f 45 92 e8 3e
       0.25222132 0.31875333 0.8041341 0.45424095
000060 09 2b bb 3e 3b 11 d4 3f b6 e7 b5 3f 0f 4f 18 3f
       0.3655627 1.6567758 1.4211338 0.59495634
000070 b0 d0 fe 3e 2c b6 df 3e b1 c4 68 3e 5b 0d 1a 3e
       0.4976859 0.43693674 0.22731282 0.15044157
000080 ea e0 6b 3e 76 db 0b 3f 5f 27 72 3e 19 72 c2 3f
       0.23035017 0.54631746 0.23647831 1.519107
000090 61 0d e8 3e 6a ea 75 3e 1e d5 26 3f 28 a8 d8 3e
       0.45322707 0.24015203 0.6516894 0.42315793
0000a0 07 62 f5 3e 94 b0 08 3e ab fe 99 3e fb e0 64 3f
       0.4792635 0.13348609 0.3007711 0.8940579
0000b0 4d dc 13 3f 19 07 27 3f 73 08 0f 3e 43 7a 12 3e
       0.5775803 0.65245205 0.13968067 0.14304452
0000c0 05 14 46 3e 3f 22 ca 3e b5 08 14 3f b9 51 a8 3e
       0.19343574 0.39479253 0.57825786 0.3287485
0000d0 ad 65 90 3e f9 75 89 3e 56 f8 aa 3e 7a 37 8a 3f
       0.28202572 0.26847818 0.3339259 1.079818
0000e0 9c 57 47 3f 82 be 04 3f 89 da f3 3e d0 77 9a 3e
       0.77868056 0.5185319 0.47627667 0.30169535
0000f0 5b 61 80 3e 28 1c f6 3e 66 f4 5f 3e 6f b5 02 3f
       0.25074276 0.48068357 0.21870574 0.51058096

block2.0.weight f4 [32, 64]
000000 66 42 84 bd 91 76 bb 3d ea e2 e4 3e 5c 51 80 bd
       -0.06457977 0.09153474 0.44704372 -0.06265518
000010 62 5f 27 3e e2 c2 fa 3c 3e 1e 1a 3d 17 ef 61 be
       0.1634498 0.030610505 0.037626497 -0.22063862
000020 78 46 e6 3d b4 61 b8 be d9 cd 91 3b 26 6d f2 3d
       0.112439096 -0.36012042 0.004449588 0.11837225
000030 29 70 13 3f 59 b8 e8 bd d4 24 49 3e fb 57 31 be
       0.5759302 -0.113632865 0.19642955 -0.17318718
000040 94 22 66 3e 3a be b5 3d 25 6a 6e 3e 68 2e 17 be
       0.22474128 0.088741735 0.23282678 -0.14763796
000050 dc 9b 34 bd 32 b5 a4 be c2 87 fa bd 7a 30 6b 3e
       -0.04409395 -0.3216949 -0.12232925 0.22967711
000060 82 80 06 3e 80 42 c2 be ff 36 b4 3e 17 24 7f 3e
       0.1313496 -0.3794136 0.3519821 0.24916111
000070 48 04 3b bc e9 88 7a 3e fe e3 e7 3e a1 3f 39 3d
       -0.011414595 0.2446629 0.45291132 0.045226697
000080 2d 3d fd be 9b 94 12 bd d6 e5 ff bd 42 27 8b 3e
       -0.49460736 -0.035786252 -0.124950096 0.2717839
000090 b0 f4 8b 3e 5d 8c 98 3d c6 fd 54 3e 1c fa 8a 3e
       0.2733512 0.07448647 0.20799932 0.27143943
0000a0 d3 a1 c9 3e 0d 69 cb be 29 cd c7 3d 01 8d 0c bc
       0.39381275 -0.39728585 0.09755928 -0.00857854
0000b0 2e b3 36 be f9 c5 4c bc ff 4d 9e 3e 41 38 a2 3e
       -0.17841789 -0.012498372 0.3091888 0.31683543
0000c0 f1 9c ed be 2c 57 4a be fb b6 de be b2 84 9d be
       -0.464088 -0.19759816 -0.43498978 -0.307653
0000d0 5a b5 98 3d 4b c9 20 bf f2 81 3b 3e 15 5b 09 3d
       0.07456465 -0.6280715 0.18311289 0.03353413
0000e0 9c e9 92 be 16 c2 24 be 6b 21 ca bd 86 80 8c 3c
       -0.28693855 -0.16089663 -0.09869655 0.017151129
0000f0 87 52 28 3d 57 81 fc 3e 20 b1 bf 3e 97 b9 8a 3e
       0.04109433 0.49317428 0.37439823 0.2709472
000100 9c 14 f5 3d a8 59 d0 3d 83 bb 96 3d 90 df 77 3d
       0.119668216 0.101733506 0.07359984 0.06051594
000110 86 18 73 3e 60 1d b0 be 81 01 ac 3d d0 6c 47 3d
       0.23739824 -0.3439741 0.08398724 0.048687756
000120 d2 b9 8d be 3c f2 35 be 4f ff df 3e a6 1e 86 3e
       -0.27680832 -0.17768186 0.43749472 0.26195258
000130 fa b4 51 3e 58 11 4f be 43 fe ae 3d d8 d4 b9 bd
       0.20479193 -0.2022146 0.0854459 -0.090738
000140 53 7d b4 3e 5d 36 c3 be 6e 6e b9 bc 09 ab be be
       0.35251865 -0.38127413 -0.022635665 -0.37239864
000150 c0 b9 ff 3e 57 af ba 3d ab 97 d7 bb 0b ca ad bd
       0.49946404 0.09115475 -0.0065793595 -0.08485802
000160 7e a0 ab be 51 c4 8f be 0f f9 dc 3d b7 92 19 3e
       -0.33520883 -0.28079465 0.10789692 0.14997374
000170 be 1c 49 3e 7d a1 ea 3c b6 0d e6 3c fd cb 90 bd
       0.1963987 0.028641457 0.02808271 -0.07070158
000180 ca 18 86 bd 6a a5 0e be 52 8f 89 3d 80 50 d1 3d
       -0.06547697 -0.13930288 0.06716789 0.10220432
000190 b0 d3 8f be 48 c6 8a bd bb 95 60 3e f9 56 d1 be
       -0.28091192 -0.067761004 0.21932118 -0.40886667
0001a0 fb 5e 2f 3e 22 a0 9e 3d c7 95 bc bd 26 48 8a 3e
       0.17126076 0.07745387 -0.09208255 0.2700817
0001b0 e3 03 f7 3b 25 bd 56 bd c6 37 88 3e bc bc e2 bd
       0.007538305 -0.052426476 0.26605052 -0.110711545
0001c0 fa b0 28 be 5d 73 bd 3d 25 5d 5a be 2d ea 2d be
       -0.16473761 0.092505194 -0.21324594 -0.16983862
0001d0 b3 51 0d 3e 22 0e a2 bc 0c 8b b9 3e 1f 7b f6 be
       0.13800697 -0.01978213 0.36238897 -0.4814081
0001e0 27 4b 04 be 59 13 67 be 0b 21 ac be d4 f1 02 3d
       -0.12919293 -0.22565974 -0.3361896 0.031968907
0001f0 bc ba 03 be 9a ca 97 3e b2 ea b1 3c 25 e5 49 3d
       -0.12864202 0.2964676 0.021718357 0.049290795
000200 06 85 38 bd 46 a5 8e be 58 bb 76 bd 91 4c 04 bf
       -0.045048736 -0.2786047 -0.06023726 -0.5167933
000210 8a 9c c5 3e 57 21 18 3f 3f 2d 08 be 6a 19 70 3e
       0.38595992 0.5942587 -0.1329851 0.23447195
000220 be f4 10 be fa 23 8a be fd 28 4e bc a6 0a b1 3e
       -0.14155862 -0.26980573 -0.012583015 0.34578437
000230 70 d4 31 3e 42 75 ba bd 1f 56 3b bd a0 18 9c be
       0.17366195 -0.091043964 -0.04573643 -0.30487537
000240 36 33 92 be 30 44 85 3e 09 f3 7b be c1 9b dd be
       -0.28554696 0.26028585 -0.2460443 -0.43282893
000250 ab 49 1a 3f 52 0e b3 3d bc 21 1c bd 6d 61 39 be
       0.6026866 0.08742966 -0.03811811 -0.18103571
000260 cf b7 92 bd 4e 25 c1 bd eb 3a 04 3d ff d1 ba be
       -0.07163965 -0.094309434 0.03228275 -0.3648834
000270 49 95 a2 3d 9e 77 e9 bc 8e 57 8a 3d 28 48 11 3e
       0.0793863 -0.02849942 0.06754981 0.14187682
000280 14 2c 88 3e b6 6e 08 be ab d2 f0 3b ef 5b ce bd
       0.2659613 -0.13323483 0.0073493323 -0.10076129
000290 b1 12 ba be 91 4b 40 3e 69 ed 28 be 93 e4 52 3e
       -0.36342385 0.18778826 -0.16496815 0.20595007
0002a0 bd c7 a4 be 79 47 2f 3e 57 3e 16 bd a5 8d 00 bf
       -0.32183638 0.17117108 -0.036680546 -0.5021613
0002b0 19 4c 35 bd ad 0b c0 bd 0b d4 e1 3a f6 74 1a be
       -0.044262026 -0.09377227 0.0017229331 -0.1508368
0002c0 c5 cb 0f 3c e6 75 86 be 3b 1b 18 3e bc 8b 52 be
       0.00877661 -0.26261824 0.14854138 -0.20561117
0002d0 9c 1d 8d bd de c9 47 be 41 12 88 bc 19 fb 65 be
       -0.06890413 -0.195106 -0.016610267 -0.22459067
0002e0 00 85 77 3c 5e 77 3d 3c c1 f1 e2 bd 5b 71 1b 3f
       0.015107393 0.011564104 -0.11081267 0.6071984
0002f0 aa b7 97 bc 76 f5 bb be cc 87 00 3e 2c 78 e6 3d
       -0.018520195 -0.3671071 0.12551802 0.1125339
000300 2b 65 86 3e f9 43 b5 be e1 48 6e 3e 56 ea 25 bd
       0.2624906 -0.35403422 0.23269989 -0.040506683
000310 2e 16 09 3f 91 6b 87 3e 06 3e 62 3e 69 c2 3c be
       0.5354947 0.26449254 0.22093973 -0.18433537
000320 b8 fa 04 3e ea df 9d be bc fc 2e bd 16 aa 9a 3d
       0.12986267 -0.30834895 -0.042721495 0.075519726
000330 d2 68 fc 3d b9 54 9d 3e 5e 20 1e 3c ca 69 13 3e
       0.123246804 0.307287 0.009651272 0.14395824
000340 b1 77 18 be d9 b6 1b 3e ad b7 05 3d d9 4a 7a bd
       -0.14889409 0.1520647 0.03264587 -0.061106537
000350 18 6b 4b 3e 17 58 78 3e 56 15 00 be 94 44 c6 3c
       0.19865072 0.24252354 -0.12508139 0.024202622
000360 5d 8d 41 be 97 13 c5 be ad 80 e7 3d ec 1a c1 3e
       -0.18901582 -0.38491508 0.1130384 0.37715852
000370 d9 3e da bd 56 58 09 bd 2b e0 7f 3d e0 5f 7e 3e
       -0.106565185 -0.03353151 0.062469643 0.24841261
000380 b0 9c a6 be 96 7c 17 bf 69 23 6c be 4c e3 d6 be
       -0.32541418 -0.5917448 -0.23060383 -0.4197029
000390 ff 9a b0 3d 04 f1 19 be cb 03 8a be b5 af 8b 3c
       0.08623313 -0.15033346 -0.2695602 0.017051557
0003a0 22 38 e9 bd 4c 45 3c 3e b6 67 26 3e 01 be 64 3d
       -0.113876596 0.1838581 0.162505 0.055845264
0003b0 23 7a e4 be dc 44 04 bf ba 34 86 3e 36 06 a3 3d
       -0.44624433 -0.5166757 0.26212102 0.07960169
0003c0 84 9d 29 3e 03 40 33 3d f3 82 c9 3e 82 9c e4 bd
       0.16563994 0.04376222 0.3935772 -0.11162664
0003d0 7a 1d 0e bf 2a f2 b6 3e 47 3b e8 bd 96 78 30 be
       -0.5551373 0.35731632 -0.11339431 -0.172335
0003e0 a3 86 46 3e fb 0c 04 3d 51 87 2b 3e 4b b4 80 bd
       0.19387297 0.03223894 0.16750838 -0.06284388
0003f0 f2 a0 f5 3e ef 1f 88 be 41 1c f4 3d 81 33 05 bf
       0.47974354 -0.26586863 0.119194515 -0.52031714

block2.0.bias f4 [32]
000000 5a ad 05 3b 5d a2 44 3b a3 57 ab ba ff 5a c6 39
       0.0020397515 0.0030004003 -0.0013072382 0.000378333
000010 e2 a2 38 3b 2e 2f 8c 38 56 28 1e ba 2c a1 59 3a
       0.0028173258 6.684508e-05 -0.0006033232 0.00083019095
000020 c7 8f 9d ba 9a 0c 87 ba 2f ec 86 38 17 a4 4b 39
       -0.0012020998 -0.0010303438 6.4336105e-05 0.00019420717
000030 00 42 d8 32 af cc 54 3b 5b 7e 30 b9 05 b9 4d 3a
       2.5175723e-08 0.0032470634 -0.00016831739 0.00078476995
000040 65 3f 95 3a f0 32 74 ba 6d b6 40 3b 64 f0 dd b9
       0.0011386691 -0.00093154516 0.002940561 -0.0004233151
000050 2d 04 a9 b9 82 96 ca 39 89 18 86 39 9c 48 4d b9
       -0.00032237303 0.0003864058 0.00025576752 -0.00019577373
000060 e1 3d 0a ba 82 d7 32 bb c8 a0 d3 3a 0a 66 ef 3a
       -0.0005273503 -0.0027289097 0.0016145939 0.0018264663
000070 6b 4a 8f 39 ae 0e 65 ba d9 46 7e 3a dc a1 2d 39
       0.0002733053 -0.0008737844 0.0009699888 0.00016558863

block2.1.weight f4 [32]
000000 3e ba 6d 3f 36 3c 77 3f 41 de 69 3f 3c 0a 87 3f
       0.9286231 0.9657625 0.9135476 1.0549998
000010 86 35 83 3f 49 7f 83 3f 94 2a 81 3f b6 54 72 3f
       1.0250709 1.0273219 1.0091119 0.9466051
000020 a3 1b 85 3f f5 05 82 3f 83 a4 83 3f c2 89 7a 3f
       1.0399059 1.0158068 1.028458 0.9786645
000030 1f 06 80 3f ff 64 70 3f ed ad 85 3f d4 99 6e 3f
       1.0001868 0.9390411 1.0443703 0.93203473
000040 f2 77 66 3f f5 5e 7f 3f 02 52 6d 3f 96 ea 7e 3f
       0.9002677 0.9975427 0.9270326 0.995767
000050 20 fa 7f 3f ed 05 76 3f a1 dc 76 3f bc e5 79 3f
       0.99991035 0.9610279 0.96430403 0.9761617
000060 8b 06 6f 3f 54 38 71 3f cf ee 75 3f 0e c1 81 3f
       0.9336936 0.94226575 0.9606752 1.0137041
000070 c4 27 83 3f 72 03 86 3f 87 88 86 3f 6c 8c 88 3f
       1.024651 1.0469801 1.0510415 1.0667853

block2.1.bias f4 [32]
000000 45 0f cb bd 3c 1c 50 3d 33 00 0f 3c 15 e4 66 3d
       -0.09915022 0.050808176 0.008728075 0.05636986
000010 a5 7b 9e 3c 93 c7 12 bd 59 b2 25 3d f7 de 8c 3b
       0.019346068 -0.03583486 0.04045329 0.0042990404
000020 1e 1d 5a 3d 5a a1 28 bb d2 b0 18 b9 7e b4 b5 bd
       0.053250425 -0.0025730939 -0.0001456172 -0.08872317
000030 3a 2c b8 3d 5d 69 61 3d b6 14 31 3d f1 1e da bd
       0.089928105 0.055032123 0.043232642 -0.10650433
000040 5d 0f 01 be 48 24 9e bd 3c 08 df bd 67 62 94 3d
       -0.12603517 -0.07721764 -0.108902425 0.07245331
000050 df d2 3f 3d 74 24 b9 bd 6d d1 06 bd 90 44 a1 bd
       0.04683196 -0.09040156 -0.032914568 -0.078744054
000060 0b 64 cc bd 46 21 a1 bd 0b 6e 29 bb cf 14 5b bd
       -0.09980019 -0.078676745 -0.0025852944 -0.05348664
000070 a5 6d cb 3c f0 d7 44 bd 1d ca c9 3d ee 96 ab bc
       0.024832556 -0.048057497 0.09853003 -0.020945992

block2.1.running_mean f4 [32]
000000 dd f3 21 3f 87 74 81 be 1d fc 80 bf 6f 9d 99 be
       0.6326273 -0.25284216 -1.0076939 -0.30002925
000010 39 a3 39 3e e2 21 1f bf 0d 37 1b bf 6b 63 b1 3f
       0.18128671 -0.62161076 -0.60630876 1.3858465
000020 03 2c 18 3d f9 7b 2c 3f 20 74 34 3f 47 24 b4 3e
       0.037151348 0.6737667 0.7048969 0.35183927
000030 7f 4c 8c bf e8 8e b7 bf 1f e3 79 bf 70 9a de be
       -1.0960845 -1.4340487 -0.97612184 -0.434772
000040 12 29 e9 be ba 21 af 3e a5 64 bb be 92 ef a8 bf
       -0.45539147 0.3420542 -0.36600223 -1.3198111
000050 69 99 d3 bf 46 bd 27 3f 5d 7f 1c 3f 18 93 2a 3f
       -1.6531192 0.65523183 0.6113184 0.666307
000060 bc 0a e8 3f dd ef 58 3d d9 b1 8f bf fb 90 82 3f
       1.8128276 0.052963126 -1.122615 1.0200495
000070 cc 22 57 3e df 7b ba 3f 23 60 8b bf a9 08 4c 3f
       0.21009368 1.4569052 -1.0888714 0.79700714

block2.1.running_var f4 [32]
000000 98 f4 92 40 be 4b 4a 40 de b5 20 40 c3 e6 65 40
       4.5923576 3.160873 2.5111003 3.5922096
000010 e2 08 56 40 a5 9f bc 40 2d f3 2c 40 17 48 2a 40
       3.3442922 5.894488 2.7023423 2.66065
000020 e7 3c 7c 40 6e 13 81 40 14 ff 92 40 8e c3 db 40
       3.9412172 4.033622 4.5936375 6.8676214
000030 61 d1 2b 40 d1 59 65 40 76 78 b8 40 f2 37 c8 40
       2.6846545 3.583607 5.7647047 6.2568293
000040 52 86 c8 40 b5 7d ee 40 b4 51 fe 40 34 e8 09 40
       6.2663965 7.452845 7.9474735 2.1547976
000050 1e 25 77 40 b9 47 68 40 3a 8c 82 40 89 c7 90 3f
       3.8616405 3.6293776 4.0796175 1.1310893
000060 d3 73 9d 40 d1 78 96 40 ff 58 1f 40 58 41 cb 40
       4.9203887 4.702248 2.489807 6.3517265
000070 10 d7 47 40 03 f3 13 40 d3 4b f0 3f 0b 9a 83 40
       3.1225014 2.3117073 1.877314 4.112554

classifier.weight f4 [3, 32]
000000 ac b6 4b be bd 4a 64 be 2d 80 e2 bf c4 25 d9 3e
       -0.19893903 -0.22294135 -1.7695366 0.42411625
000010 bc 55 d3 bf 81 81 f1 3d 51 e1 e6 be 92 29 eb 3e
       -1.6510539 0.11792279 -0.45093778 0.45930153
000020 bb fa 54 bf 3f 28 3d 3f 9c 66 aa be a0 b0 eb 3d
       -0.83195084 0.73889536 -0.3328141 0.11508298
000030 68 25 71 bf f6 86 fa be 25 f9 70 bf a8 52 70 3e
       -0.941977 -0.48931092 -0.94130164 0.23469031
000040 06 7e 46 3e 48 42 eb 3f 05 4d c3 3f 1e 2b fe be
       0.19384012 1.8379602 1.525788 -0.4964227
000050 ba e7 55 bd 2c 47 ab bc 73 3f 27 c0 aa 95 8d 3d
       -0.052222945 -0.02090796 -2.6132476 0.06913312
000060 fa 27 42 3f ac 1d dd 3f 92 a0 be be 0b 5f 64 3e
       0.7584225 1.727468 -0.3723188 0.22301881
000070 85 b7 7c 3f b5 77 96 3e 92 2c 91 bf 56 ef 4a 3f
       0.9871753 0.29388204 -1.1341727 0.7927145
000080 d2 eb 1f bf d3 a6 b3 3e be cf 47 3f 35 0b cc bd
       -0.6246921 0.35088214 0.78051364 -0.09963075
000090 5d fb d3 be d7 74 41 bf a9 14 95 3d 1d 15 65 3f
       -0.41402712 -0.7556891 0.07279331 0.8948534
0000a0 ee 43 3b 3f 6b b7 59 3e f3 d7 4b be b1 61 0a bf
       0.7315053 0.21261375 -0.19906597 -0.54055315
0000b0 d4 91 dc 3d b3 35 cc 3f 6c 8b a1 3e 44 bb 3e be
       0.10770002 1.5953888 0.31551683 -0.18626124
0000c0 a9 ae 4b bf c2 9b d7 be 56 c6 8f bf cd 88 f6 3e
       -0.79563385 -0.4211102 -1.1232402 0.48151246
0000d0 34 67 0a 3f bf f8 fa be d1 1c ec bf 85 26 69 bf
       0.54063725 -0.49017903 -1.8446294 -0.910744
0000e0 35 fb b8 bf f2 97 e0 bd 08 4a 40 3f 2e b7 49 be
       -1.4451662 -0.10966481 0.7511296 -0.19698784
0000f0 08 00 17 3f d1 59 f1 be 6a 0d e2 be 45 99 50 3e
       0.5898442 -0.47138837 -0.4415086 0.20370968
000100 33 8f 09 3f 98 95 d0 bf 04 a6 a5 be bb 34 bd bf
       0.5373413 -1.6295652 -0.32353222 -1.4781717
000110 ad 8c d7 3e da 98 8a bf c3 fc 24 3e 63 8b 58 bf
       0.42099515 -1.0827897 0.16112046 -0.8458769
000120 a3 6a 98 3f 2e ac f4 be 1d 8e 5e bc 71 6e a2 3e
       1.1907543 -0.47787613 -0.013583687 0.31724885
000130 71 17 de be 9a c5 d8 bc 72 15 65 3f 52 52 c5 3e
       -0.4337726 -0.026461411 0.8948585 0.38539368
000140 c3 5e c6 3e 73 97 ff 3d 57 b9 20 bf d8 e4 12 bf
       0.38744172 0.124800585 -0.62782806 -0.5738044
000150 12 57 6f bf fe 76 d9 bd fb e2 56 bf d2 bd dc bd
       -0.93492234 -0.10618399 -0.83940095 -0.10778393
000160 9e ab bb 3e b4 f5 94 be 20 0d 9c 3f b3 49 b3 3f
       0.3665437 -0.29093707 1.2191505 1.4006866
000170 e5 fd 8b bd 15 5b 5b bd 8c 99 9d bf f7 8e 74 3e
       -0.06835536 -0.05355366 -1.2312484 0.23882662

classifier.bias f4 [3]
000000 7e 3f b6 bd c3 90 f6 3d 04 fc 88 bd
       -0.08898829 0.1203933 -0.06688693
