backend/models/model.pth (torch, 106284 bytes, 50 tensors)

weight f4 [24, 12]
0.19905625 0.19326298 0.062073182 0.15075956 -0.18350361 0.20551904 0.2599305 0.113125294
-0.19342396 -0.19936429 0.2572952 0.24080275 0.029938927 0.22776552 -0.27317744 0.026503397
-0.13261062 0.13305865 -0.26766336 0.08719497 0.046439774 0.055313963 -0.1741076 -0.07186151
0.18342818 0.14590745 0.1085855 0.065515354 -0.24461555 0.014694351 0.0068422197 0.009378474
-0.20509772 0.0076579396 -0.25629425 -0.23964779 -0.18540262 0.27359116 -0.23780374 -0.028647691
0.22878 -0.07861646 0.16190004 0.18232292 -0.19644773 0.18012542 -0.17805801 0.20587721
0.16269368 0.100745656 0.25576347 0.077674374 0.22436261 0.18711372 0.18944237 -0.21402116
0.23225494 -0.1505552 0.16235946 -0.19599813 -0.24315403 0.23646888 0.052560084 -0.14109798
0.24992685 -0.27525866 -0.15833588 0.16604975 0.16216138 0.13594611 -0.22785254 -0.16264391
0.16873397 -0.13398644 -0.015125921 -0.21010987 -0.032058373 0.00733033 -0.21935786 0.19623837
0.18929419 0.11762352 -0.022815727 0.13257742 -0.047496658 0.036597554 0.22465602 0.25144833
-0.1169362 -0.018111605 -0.21322815 0.1940885 -0.1639069 0.0745041 -0.24397808 0.109359786
-0.16283731 0.093100786 0.26334995 0.095855564 0.05449752 0.24512324 -0.119774565 0.28432733
0.25862932 -0.03918443 0.12942056 0.082959384 -0.13192192 -0.023325002 -0.11398218 0.062092863
-0.019525936 0.1940715 -0.26472992 0.032508597 0.20235631 -0.031339973 0.059024934 -0.17345916
-0.27484378 0.0035355666 -0.03207613 -0.23490533 -0.2772278 0.2667445 0.17958903 0.0028162713
0.13214299 -0.20366092 -0.22738615 -0.11679504 -0.21280873 -0.20177749 -0.08569148 0.1716784
0.026039686 0.26278797 0.16693357 0.13931037 -0.011228022 0.095115274 0.18768622 0.0587571
0.17503732 0.12032317 0.041923583 0.14369662 0.058925137 -0.25166646 0.2790331 0.10289707
0.20214112 0.16506207 -0.19731243 0.16403742 0.091909796 0.044642877 0.05298367 0.1424553
-0.1792672 -0.23098283 0.095385864 -0.03593122 -0.1673054 0.14900772 0.27581137 -0.16753696
0.11002798 -0.20739911 0.14220136 -0.21789886 -0.11428614 0.1777782 0.23657687 -0.13753192
0.2194848 -0.21202192 0.06592383 0.13853055 0.14004055 -0.16825956 -0.08319208 -0.23568909
-0.03974598 0.017073441 -0.23381352 -0.2137833 0.03368534 -0.21609226 0.20063281 -0.1384038
-0.013772743 0.039707333 0.009028944 0.040675156 0.0318902 -0.08017498 0.13025834 -0.03795751
0.07018365 0.27861965 0.21526629 0.1885563 -0.02002936 -0.1784432 -0.25071472 -0.23154156
0.09285776 0.13051137 0.09491066 0.26711097 0.23095626 0.21594703 0.23944665 -0.21031763
-0.256168 0.13213405 -0.25866976 -0.11351667 -0.15457392 -0.22332121 0.045710087 0.049165092
0.017063601 -0.057994273 0.07796981 0.14252411 0.176589 0.11030242 0.043731526 0.2537477
0.008025262 -0.07770566 0.2664818 0.20931397 0.23115142 -0.17689262 -0.1870248 0.06526785
0.078977935 -0.18722653 0.1469628 -0.14376965 0.09320203 -0.05426658 -0.018123996 0.062286884
0.2173454 -0.22665921 0.1897696 -0.250226 0.034780253 -0.06216534 0.00655095 -0.03859091
00000000: 67d5 4b3e bbe6 453e 7340 7e3d b760 1a3e
00000010: 5fe8 3bbe 9573 523e 9c15 853e 3cae e73d
00000020: ee10 46be 2726 4cbe 32bc 833e ff94 763e
00000030: 7b42 f53c 5d3b 693e eadd 8bbe a71d d93c
00000040: 14cb 07be 8740 083e 2c0b 89be 4793 b23d
00000050: a237 3e3d e590 623d 4349 32be 212c 93bd
00000060: 99d4 3b3e c368 153e 1362 de3d ea2c 863d
00000070: 807c 7abe 93c0 703c b334 e03b 2ca8 193c
00000080: 2305 52be 74ef fa3b 0039 83be 3b66 75be
00000090: 2fda 3dbe 2414 8c3e d382 73be 90ae eabc
000000a0: 4e45 6a3e ab01 a1bd 20c9 253e dcb2 3a3e
000000b0: 9829 49be cc72 383e d754 36be 7ad1 523e
000000c0: 2c99 263e bd53 ce3d 6ef3 823e be13 9f3d
000000d0: 50bf 653e bd9a 3f3e 2efd 413e 5d28 5bbe
000000e0: 3dd4 6d3e 242b 1abe 8f41 263e bcb3 48be
000000f0: 5ffd 78be e624 723e 3e49 573d fd7b 10be
00000100: d3ec 7f3e b4ee 8cbe cd22 22be f208 2a3e
00000110: a20d 263e 7535 0b3e 2d52 69be 208c 26be
00000120: 99c8 2c3e be33 09be b6d2 77bc 0b27 57be
00000130: a44f 03bd 4433 f03b 599f 60be b6f2 483e
00000140: 56d6 413e 9ae4 f03d 0ce8 babc 60c2 073e
00000150: db8b 42bd 51e7 153d 3a0c 663e d6bd 803e
00000160: 3f7c efbd ca5e 94bc 7b58 5abe 23bf 463e
00000170: 36d7 27be 9b95 983d 64d5 79be 06f8 df3d
00000180: d3be 26be a0ab be3d ced5 863e ec4f c43d
00000190: cb38 5f3d 9601 7b3e 5e4c f5bd 5a93 913e
000001a0: 106b 843e da7f 20bd d386 043e 9ce6 a93d
000001b0: 8a16 07be 1314 bfbc 7d6f e9bd 1655 7e3d
000001c0: dbf4 9fbc aeba 463e ae8a 87be bc27 053d
000001d0: 7e36 4f3e 585e 00bd 21c4 713d 479f 31be
000001e0: 53b8 8cbe f7b4 673b 4362 03bd 068b 70be
000001f0: cdf0 8dbe bc92 883e 30e6 373e 3191 383b
00000200: 7e50 073e 7d8c 50be ead7 68be 3d32 efbd
00000210: 88ea 59be c29e 4ebe 047f afbd 76cc 2f3e
00000220: 2e51 d53c 258c 863e a2f0 2a3e 61a7 0e3e
00000230: bdf5 37bc cccb c23d d130 403e 49ab 703d
00000240: fc3c 333e ff6b f63d 10b8 2b3d 3525 133e
00000250: 7c5b 713d 6dda 80be 6ddd 8e3e b3bb d23d
00000260: 15fe 4e3e 0806 293e 450c 4abe 6df9 273e
00000270: 343b bc3d 73db 363d 6805 593d cddf 113e
00000280: d291 37be c386 6cbe aa59 c33d 9d2c 13bd
00000290: 1b52 2bbe 7b95 183e 2637 8d3e cf8e 2bbe
000002a0: 5956 e13d 6f60 54be 3c9d 113e e120 5fbe
000002b0: da0e eabd 7d0b 363e 3541 723e 2bd5 0cbe
000002c0: a0c0 603e 461c 59be 1303 873d f4da 0d3e
000002d0: ca66 0f3e 3c4c 2cbe 9c60 aabd 7b58 71be
000002e0: aecc 22bd 9add 8b3c d06c 6fbe 02ea 5abe
000002f0: a4f9 093d 4a47 5dbe b072 4d3e bab9 0dbe
00000300: 12a7 61bc 28a4 223d 23ee 133c fe9a 263d
00000310: 4c9f 023d c832 a4bd 7162 053e 5679 1bbd
00000320: 72bc 8f3d 3ca7 8e3e c46e 5c3e e714 413e
00000330: 9d14 a4bc d0b9 36be ae5d 80be 3b19 6dbe
00000340: 362c be3d c6a4 053e 8560 c23d c5c2 883e
00000350: cc7f 6c3e 3821 5d3e 8131 753e 815d 57be
00000360: 7428 83be 264e 073e 5d70 84be 6e7b e8bd
00000370: a048 1ebe 51ae 64be 803a 3b3d 5661 493d
00000380: f7c8 8b3c 678b 6dbd a3ae 9f3d d7f1 113e
00000390: bfd3 343e 3ce6 e13d d41f 333d 38eb 813e
000003a0: 637c 033c 2524 9fbd 4d70 883e 6756 563e
000003b0: f5b2 6c3e 5723 35be 6e83 3fbe 27ab 853d
000003c0: 2fbf a13d 50b8 3fbe 6b7d 163e 5a38 13be
000003d0: b5e0 be3d a246 5ebd c678 94bc 8820 7f3d
000003e0: cb8f 5e3e 5a19 68be f652 423e 9f1d 80be
000003f0: bd75 0e3d 15a1 7ebd 5aa9 d63b 8111 1ebd

bias f4 [24]
-0.12808235 0.2356884 0.1585257 0.21786101 0.20763223 0.23863417 0.040770378 0.17931896
0.06526902 0.23918897 -0.045603167 0.04444731 -0.107210085 -0.26694658 0.2665224 -0.03204502
-0.043108586 -0.20527574 0.16204344 0.22242531 -0.18161467 -0.16624652 -0.063546635 -0.17232081
00000000: 0528 03be 4d58 713e 9054 223e f516 5f3e
00000010: 8b9d 543e 845c 743e d7fe 263d 649f 373e
00000020: c4ab 853d f4ed 743e 63ca 3abd 620e 363d
00000030: f690 dbbd 39ad 88be a075 883e a441 03bd
00000040: a192 30bd ce33 52be b7ee 253e 76c3 633e
00000050: 32f9 39be 873c 2abe bd24 82bd de74 30be

weight f4 [24]
1.0 1.0 1.0 1.0 1.0 1.0 1.0 1.0
1.0 1.0 1.0 1.0 1.0 1.0 1.0 1.0
1.0 1.0 1.0 1.0 1.0 1.0 1.0 1.0
00000000: 0000 803f 0000 803f 0000 803f 0000 803f
00000010: 0000 803f 0000 803f 0000 803f 0000 803f
00000020: 0000 803f 0000 803f 0000 803f 0000 803f
00000030: 0000 803f 0000 803f 0000 803f 0000 803f
00000040: 0000 803f 0000 803f 0000 803f 0000 803f
00000050: 0000 803f 0000 803f 0000 803f 0000 803f

bias f4 [24]
0.0 0.0 0.0 0.0 0.0 0.0 0.0 0.0
0.0 0.0 0.0 0.0 0.0 0.0 0.0 0.0
0.0 0.0 0.0 0.0 0.0 0.0 0.0 0.0
00000000: 0000 0000 0000 0000 0000 0000 0000 0000
00000010: 0000 0000 0000 0000 0000 0000 0000 0000
00000020: 0000 0000 0000 0000 0000 0000 0000 0000
00000030: 0000 0000 0000 0000 0000 0000 0000 0000
00000040: 0000 0000 0000 0000 0000 0000 0000 0000
00000050: 0000 0000 0000 0000 0000 0000 0000 0000

running_mean f4 [24]
0.0 0.0 0.0 0.0 0.0 0.0 0.0 0.0
0.0 0.0 0.0 0.0 0.0 0.0 0.0 0.0
0.0 0.0 0.0 0.0 0.0 0.0 0.0 0.0
00000000: 0000 0000 0000 0000 0000 0000 0000 0000
00000010: 0000 0000 0000 0000 0000 0000 0000 0000
00000020: 0000 0000 0000 0000 0000 0000 0000 0000
00000030: 0000 0000 0000 0000 0000 0000 0000 0000
00000040: 0000 0000 0000 0000 0000 0000 0000 0000
00000050: 0000 0000 0000 0000 0000 0000 0000 0000

running_var f4 [24]
1.0 1.0 1.0 1.0 1.0 1.0 1.0 1.0
1.0 1.0 1.0 1.0 1.0 1.0 1.0 1.0
1.0 1.0 1.0 1.0 1.0 1.0 1.0 1.0
00000000: 0000 803f 0000 803f 0000 803f 0000 803f
00000010: 0000 803f 0000 803f 0000 803f 0000 803f
00000020: 0000 803f 0000 803f 0000 803f 0000 803f
00000030: 0000 803f 0000 803f 0000 803f 0000 803f
00000040: 0000 803f 0000 803f 0000 803f 0000 803f
00000050: 0000 803f 0000 803f 0000 803f 0000 803f

weight f4 [32, 24]
0.1666434 -0.14457761 0.14774887 0.13038091 -0.18617456 -0.15477046 0.00071482075 -0.040655017
0.025423272 0.114605874 -0.19958346 -0.19413085 0.17254706 0.052808017 -0.098278195 -0.15194857
-0.2023482 -0.054121733 -0.13574222 0.04754227 -0.1767124 -0.10388482 -0.14639857 -0.10948871
-0.1264799 -0.01791904 -0.14365469 -0.121108755 0.10707796 0.0627992 0.06914737 0.18263315
-0.1381668 -0.097874254 0.15403636 0.14220078 -0.0043167863 0.09120707 -0.052757233 0.10856243
0.03317631 -0.10297171 -0.012813215 0.13326125 0.087903924 0.14956406 -0.012063719 -0.12980813
-0.1280751 0.114237465 -0.1339092 0.009049286 -0.18759346 -0.09017857 -0.1799901 -0.007240407
0.17109622 -0.040914435 0.016630094 -0.112626344 -0.14514755 -0.03137113 0.012983404 0.021412527
0.19534333 -0.0592178 -0.12259957 -0.12543763 0.19232309 -0.09453855 -0.10373092 0.12416368
-0.1948292 -0.13209353 0.08179466 0.12860116 -0.17443064 0.061252568 0.053311937 -0.04446124
-0.094853304 0.020869404 -0.153789 0.044144247 0.022598736 0.1716264 0.17902403 -0.1636182
0.09061618 -0.15226342 0.11052592 0.14013955 -0.04451331 0.12542501 0.06532672 -0.021030344
0.018806702 0.1231169 -0.1966129 -0.07024863 0.060084146 0.010942797 0.14304681 0.037089575
-0.06657462 0.07584553 0.15871556 -0.07709907 0.051217895 0.0058339797 -0.18673174 0.102388896
0.09326337 0.1847243 -0.0060657565 -0.16700545 -0.081715986 -0.09894593 0.13395251 0.15969875
0.09727363 0.07513728 0.18619365 0.06447106 0.07321014 -0.2010128 -0.09893125 -0.12501918
-0.069868594 0.093439475 0.17043644 0.03299656 -0.14245088 -0.075677924 0.1247873 -0.012548686
0.030457092 -0.19867858 -0.070966035 -0.03392116 -0.14542407 0.07802202 0.16442823 0.06797793
-0.099063724 0.16400094 0.112977885 -0.12238726 0.03298505 -0.20092109 -0.05633136 0.065378726
-0.12587932 -0.074646235 0.08648005 -0.031616192 0.085746616 0.18206301 0.07475089 -0.091295525
0.1491525 -0.036686003 0.06475041 0.0058990964 -0.07408656 -0.17702688 -0.11004395 -0.09226213
0.036977883 -0.20146696 0.10582445 -0.055298135 0.059215415 0.16530782 -0.15715824 0.17804602
-0.010120666 -0.037588216 -0.17976668 0.13879137 -0.11166072 -0.0052759885 0.07896526 -0.108361535
-0.13559464 -0.19525963 0.18725276 -0.036792707 -0.14148729 0.0064037484 -0.15830885 -0.014446455
0.147133 -0.20275415 -0.18963414 -0.0012186702 -0.14843556 0.003598997 0.18179452 -0.033151492
-0.11613124 -0.005101663 -0.1777835 0.06952576 -0.05995693 -0.15056252 -0.17754607 -0.04161142
-0.16876695 0.05091302 0.05953141 0.061872244 0.011213799 0.13403395 0.05667478 -0.06370448
0.114422515 -0.02855959 0.14684722 -0.10104644 0.0045794663 0.13661225 0.02033908 -0.1934738
-0.196343 -0.1412175 -0.16999367 0.121318 -0.13999413 0.054386336 0.085811704 0.13961078
0.061808612 0.040827516 0.028623028 0.088505715 0.0406621 0.005103391 0.13879816 0.19419302
0.033630617 -0.088280074 -0.051402926 -0.1617928 -0.013764266 0.11413003 0.16607147 -0.073945984
-0.13079785 0.0942091 0.20350805 -0.13405423 -0.00045233534 -0.014533472 -0.20124523 0.0011579581
00000000: 91a4 2a3e 270c 14be 7b4b 173e 9382 053e
00000010: 8ba4 3ebe 267c 1ebe cf62 3b3a e085 26bd
00000020: 7744 d03c 7cb6 ea3d 9b5f 4cbe 3dca 46be
00000030: 2db0 303e 384d 583d 1446 c9bd 6898 1bbe
00000040: 5e34 4fbe c0ae 5dbd 0200 0bbe afbb 423d
00000050: 18f4 34be 91c1 d4bd 82e9 15be 9e3b e0bd
00000060: f283 01be f3ca 92bc 371a 13be de07 f8bd
00000070: b14b db3d de9c 803d 239d 8d3d 2f04 3b3e
00000080: 997b 0dbe 4c72 c8bd b5bb 1d3e 159d 113e
00000090: d473 8dbb c6ca ba3d f817 58bd fb55 de3d
000000a0: e2e3 073d d5e2 d2bd 85ee 51bc a375 083e
000000b0: f906 b43d 5227 193e e8a6 45bc 6cec 04be
000000c0: 1e26 03be 55f5 e93d 7e1f 09be 7543 143c
000000d0: 8018 40be 8baf b8bd 534f 38be f040 edbb
000000e0: d933 2f3e e595 27bd d63b 883c a4a8 e6bd
000000f0: 8fa1 14be 047f 00bd 58b8 543c 5369 af3c
00000100: 1508 483e 5d8e 72bd 7c15 fbbd b972 00be
00000110: 58f0 443e 6d9d c1bd e070 d4bd 8749 fe3d
00000120: 4e81 47be 8743 07be f583 a73d 06b0 033e
00000130: f29d 32be f9e3 7a3d 9e5d 5a3d fd1c 36bd
00000140: 7342 c2bd 50f6 aa3c dd7a 1dbe 99d0 343d
00000150: fc20 b93c d5be 2f3e 1352 373e 888b 27be
00000160: fa94 b93d f1ea 1bbe 6a5b e23d be80 0f3e
00000170: 9753 36bd 6a6f 003e 04ca 853d d447 acbc
00000180: 8310 9a3c b724 fc3d e454 49be 84de 8fbd
00000190: cb1a 763d 6b49 333c dd7a 123e 3deb 173d
000001a0: 4658 88bd e754 9b3d 5586 223e 1ee6 9dbd
000001b0: dbc9 513d f82a bf3b 9b36 3fbe 45b1 d13d
000001c0: de00 bf3d 5e28 3d3e 41c3 c6bb 7a03 2bbe
000001d0: b65a a7bd 2aa4 cabd d92a 093e 1288 233e
000001e0: 6637 c73d 93e1 993d 8ca9 3e3e 6709 843d
000001f0: 33ef 953d 4dd6 4dbe 789c cabd 0705 00be
00000200: 4417 8fbd 325d bf3d e486 2e3e 6727 073d
00000210: a5de 11be 07fd 9abd 7c90 ff3d 0199 4dbc
00000220: 2781 f93c 6672 4bbe a456 91bd eaf0 0abd
00000230: 0cea 14be 02ca 9f3d e05f 283e 0338 8b3d
00000240: ece1 cabd ddef 273e f360 e73d 2ca6 fabd
00000250: 551b 073d 42be 4dbe b6bb 66bd 48e5 853d
00000260: 82e6 00be 20e0 98bd 741c b13d fb7f 01bd
00000270: ec9b af3d ba6e 3a3e ff16 993d 26f9 babd
00000280: 6fbb 183e 1044 16bd dd9b 843d 354d c13b
00000290: b2ba 97bd 8946 35be b95e e1bd edf3 bcbd
000002a0: 1f76 173d 5b4d 4ebe 7dba d83d 4c80 62bd
000002b0: dd8b 723d 7446 293e 17ee 20be b251 363e
000002c0: 26d1 25bc 1af6 19bd c214 38be 531f 0e3e
000002d0: 60ae e4bd 33e2 acbb 8ab8 a13d a7ec ddbd
000002e0: 52d9 0abe 24f2 47be 30bf 3f3e f3b3 16bd
000002f0: 0be2 10be 89d6 d13b b71b 22be d3b0 6cbc
00000300: 08aa 163e c99e 4fbe 742f 42be c9bb 9fba
00000310: 7eff 17be 26dd 6b3b 5828 3a3e dcc9 07bd
00000320: 37d6 edbd da2b a7bb e10c 36be 8663 8e3d
00000330: 6695 75bd 102d 1abe a3ce 35be bd70 2abd
00000340: 3ed1 2cbe 2c8a 503d 35d7 733d c06d 7d3d
00000350: 15ba 373c 3240 093e d023 683d 7f77 82bd
00000360: 5a56 ea3d cdf5 e9bc 1e5f 163e 70f1 cebd
00000370: 590f 963b 15e4 0b3e 249e a63c ff1d 46be
00000380: 240e 49be 529b 10be d212 2ebe 9275 f83d
00000390: 9f5a 0fbe 35c4 5e3d 0cbe af3d 21f6 0e3e
000003a0: 072b 7d3d c13a 273d d77a ea3c 7c42 b53d
000003b0: 4d8d 263d 593a a73b 1b21 0e3e 89da 463e
000003c0: 42c0 093d 2fcc b4bd e08b 52bd 03ad 25be
000003d0: 8483 61bc 01bd e93d a40e 2a3e fe70 97bd
000003e0: dfef 05be b3f0 c03d 6a64 503e 8345 09be
000003f0: 6c27 edb9 cd1d 6ebc 3b13 4ebe a0c6 973a

bias f4 [32]
0.07706985 -0.15718192 0.07555351 0.19258061 -0.10262369 0.025128398 -0.08628886 -0.0066586663
0.166748 -0.14181267 0.16903345 -0.032656718 0.17880459 -0.10366363 -0.109644294 0.18626687
-0.03817855 -0.20085248 0.047866564 0.15935855 0.15553571 -0.024408199 -0.18659255 -0.09856659
0.051050603 -0.11460843 0.012729265 0.12684675 0.073633984 0.20075075 -0.09223694 0.09049977
00000000: ccd6 9d3d 4cf4 20be ccbb 9a3d da33 453e
00000010: 5f2c d2bd 12da cd3c 37b8 b0bd f130 dabb
00000020: fdbf 2a3e 5737 11be 1b17 2d3e 0dc3 05bd
00000030: 8d18 373e 994d d4bd 308d e0bd bebc 3e3e
00000040: 1c61 1cbd 46ac 4dbe bb0f 443d e32e 233e
00000050: c144 1f3e b4f3 c7bc 1e12 3fbe 48dd c9bd
00000060: 701a 513d d3b7 eabd 688e 503c 1de4 013e
00000070: 6acd 963d 9b91 4d3e b9e6 bcbd f257 b93d

weight f4 [32]
1.0 1.0 1.0 1.0 1.0 1.0 1.0 1.0
1.0 1.0 1.0 1.0 1.0 1.0 1.0 1.0
1.0 1.0 1.0 1.0 1.0 1.0 1.0 1.0
1.0 1.0 1.0 1.0 1.0 1.0 1.0 1.0
00000000: 0000 803f 0000 803f 0000 803f 0000 803f
00000010: 0000 803f 0000 803f 0000 803f 0000 803f
00000020: 0000 803f 0000 803f 0000 803f 0000 803f
00000030: 0000 803f 0000 803f 0000 803f 0000 803f
00000040: 0000 803f 0000 803f 0000 803f 0000 803f
00000050: 0000 803f 0000 803f 0000 803f 0000 803f
00000060: 0000 803f 0000 803f 0000 803f 0000 803f
00000070: 0000 803f 0000 803f 0000 803f 0000 803f

bias f4 [32]
0.0 0.0 0.0 0.0 0.0 0.0 0.0 0.0
0.0 0.0 0.0 0.0 0.0 0.0 0.0 0.0
0.0 0.0 0.0 0.0 0.0 0.0 0.0 0.0
0.0 0.0 0.0 0.0 0.0 0.0 0.0 0.0
00000000: 0000 0000 0000 0000 0000 0000 0000 0000
00000010: 0000 0000 0000 0000 0000 0000 0000 0000
00000020: 0000 0000 0000 0000 0000 0000 0000 0000
00000030: 0000 0000 0000 0000 0000 0000 0000 0000
00000040: 0000 0000 0000 0000 0000 0000 0000 0000
00000050: 0000 0000 0000 0000 0000 0000 0000 0000
00000060: 0000 0000 0000 0000 0000 0000 0000 0000
00000070: 0000 0000 0000 0000 0000 0000 0000 0000

running_mean f4 [32]
0.0 0.0 0.0 0.0 0.0 0.0 0.0 0.0
0.0 0.0 0.0 0.0 0.0 0.0 0.0 0.0
0.0 0.0 0.0 0.0 0.0 0.0 0.0 0.0
0.0 0.0 0.0 0.0 0.0 0.0 0.0 0.0
00000000: 0000 0000 0000 0000 0000 0000 0000 0000
00000010: 0000 0000 0000 0000 0000 0000 0000 0000
00000020: 0000 0000 0000 0000 0000 0000 0000 0000
00000030: 0000 0000 0000 0000 0000 0000 0000 0000
00000040: 0000 0000 0000 0000 0000 0000 0000 0000
00000050: 0000 0000 0000 0000 0000 0000 0000 0000
00000060: 0000 0000 0000 0000 0000 0000 0000 0000
00000070: 0000 0000 0000 0000 0000 0000 0000 0000

running_var f4 [32]
1.0 1.0 1.0 1.0 1.0 1.0 1.0 1.0
1.0 1.0 1.0 1.0 1.0 1.0 1.0 1.0
1.0 1.0 1.0 1.0 1.0 1.0 1.0 1.0
1.0 1.0 1.0 1.0 1.0 1.0 1.0 1.0
00000000: 0000 803f 0000 803f 0000 803f 0000 803f
00000010: 0000 803f 0000 803f 0000 803f 0000 803f
00000020: 0000 803f 0000 803f 0000 803f 0000 803f
00000030: 0000 803f 0000 803f 0000 803f 0000 803f
00000040: 0000 803f 0000 803f 0000 803f 0000 803f
00000050: 0000 803f 0000 803f 0000 803f 0000 803f
00000060: 0000 803f 0000 803f 0000 803f 0000 803f
00000070: 0000 803f 0000 803f 0000 803f 0000 803f

weight f4 [48, 32]
0.15111198 0.0043189563 0.041945238 0.08098791 0.11276117 -0.16029146 -0.018056994 0.10608724
-0.055263557 -0.15566203 0.07434868 0.04388861 0.047530793 -0.0642201 -0.028589156 0.040358156
-0.10900814 -0.15781322 -0.04338643 0.017314957 0.110558495 -0.026238099 0.014068639 0.1007666
-0.15375347 0.12096872 0.010603536 -0.032333713 0.08552057 0.15092696 -0.059358884 -0.13480002
0.043130007 0.13301674 0.16628794 -0.01820531 -0.14439651 -0.0940332 -0.034313288 0.013372541
-0.027514305 0.14981876 -0.13881625 -0.12750418 -0.11117095 -0.16819753 -0.018336661 -0.1032641
-0.034193695 0.08852682 0.03625491 -0.05467449 -0.13326123 -0.023162032 0.08062962 -0.06585237
0.13260733 -0.022846753 -0.08877386 0.08440045 -0.061908346 -0.030959388 -0.07931668 0.09337781
-0.118760794 -0.17585188 -0.1401107 0.06846456 -0.12977503 -0.12336922 -0.09314527 -0.11186694
0.06477338 0.06697693 0.07032713 0.02300613 0.16725922 -0.074068725 -0.09965687 -0.13983597
-0.15888663 -0.1427312 -0.1767573 -0.026683843 0.108647875 0.12423683 0.0070436234 -0.037138812
-0.15605928 -0.004925681 0.16112502 -0.0131191965 -0.055085886 0.1110879 -0.017736932 -0.020378485
-0.06673387 0.14061183 -0.014884307 -0.059435338 0.031419463 0.06362674 -0.17360649 -0.019434102
-0.15606415 0.05643644 0.13592266 -0.16547774 -0.075651966 0.08162049 -0.025373414 0.008287567
0.1103607 -0.0009011839 -0.15324982 0.1492953 0.023273237 0.041871693 -0.0044927066 -0.12140541
-0.036199674 -0.070028104 0.065851584 -0.006968644 -0.08971155 0.030108823 0.00013204607 -0.050382614
0.028390454 0.13326403 0.1087537 -0.0003415159 0.14854945 -0.1265544 0.07218004 -0.11690166
0.1095542 -0.004251479 0.06951332 -0.09863279 0.075006045 -0.014592081 -0.16322923 -0.09126394
-0.027883828 -0.1311133 -0.11082621 -0.033873316 -0.08386148 0.09447039 0.14885421 0.01962962
0.117428705 0.046098325 -0.12674272 0.08547436 0.1274582 0.16927141 -0.14371747 -0.072890654
-0.15643592 0.024625096 0.08088608 0.079978175 0.024687812 0.12804888 -0.13464175 0.090539604
0.059893157 -0.013391002 -0.09906231 -0.092935674 0.16273522 0.15031433 -0.10332371 0.08707417
-0.15231821 0.11004689 0.05207694 -0.0075224116 -0.031172208 -0.13478753 0.08362451 0.10554692
-0.07817197 -0.04136711 -0.15590075 -0.043191604 0.16224083 0.07909716 0.05924178 0.08043713
-0.13431355 0.0499716 -0.12228744 0.093298204 -0.15332593 -0.08608993 0.01148314 0.09345433
-0.014338631 0.07254332 -0.15474856 -0.13274805 0.15525416 0.022022171 -0.056922607 -0.08098422
-0.06429253 0.12933289 -0.09842758 -0.093356065 0.12841238 0.17573729 -0.1714624 0.17377849
-0.0676168 0.15252574 0.14843917 0.03635933 0.054394826 -0.036676522 -0.13459212 0.11310766
0.06407411 0.11882756 -0.10348878 0.1272172 -0.092319906 -0.13561894 -0.14476734 0.03859433
-0.022359746 0.110382825 -0.01523695 -0.17424136 -0.12025674 -0.16421054 -0.024858885 0.036177505
0.018425401 0.081078924 0.050473064 0.17528379 0.060863398 0.061094154 0.057248738 -0.09659168
-0.092127934 0.17310509 0.16305168 -0.05588019 -0.13240339 -0.05697746 0.058201827 0.11329686
00000000: 19bd 1a3e 0886 8d3b c5ce 2b3d fddc a53d
00000010: 54ef e63d 7223 24be 43ec 93bc 4444 d93d
00000020: 0a5c 62bd de65 1fbe 1f44 983d 8bc4 333d
00000030: a6af 423d d485 83bd ce33 eabc 984e 253d
00000040: a93f dfbd ca99 21be f8b5 31bd 19d8 8d3c
00000050: 7e6c e23d 48f1 d6bc 2680 663c b85e ce3d
00000060: 8d71 1dbe 73be f73d 74ba 2d3c 5b70 04bd
00000070: 6925 af3d 998c 1a3e 4d22 73bd 0409 0abe
00000080: 17a9 303d 8a35 083e 6347 2a3e 4d23 95bc
00000090: aedc 13be 7a94 c0bd 178c 0cbd 8118 5b3c
000000a0: ae65 e1bc 176a 193e d925 0ebe 7590 02be
000000b0: 98ad e3bd f93b 2cbe c436 96bc 217c d3bd
000000c0: b00e 0cbd 8d4d b53d 0780 143d 5cf2 5fbd
000000d0: a275 08be 4dbe bdbc 2421 a53d 9bdd 86bd
000000e0: 37ca 073e 1d29 bbbc 12cf b5bd 25da ac3d
000000f0: 9b93 7dbd 8b9e fdbc c970 a2bd de3c bf3d
00000100: dc38 f3bd 8412 34be 2e79 0fbe 2637 8c3d
00000110: bfe3 04be 00a9 fcbd f3c2 bebd 7f1a e5bd
00000120: e8a7 843d 332b 893d ac07 903d 5a77 bc3c
00000130: 0046 2b3e 58b1 97bd e718 ccbd 2931 0fbe
00000140: 2db3 22be 2128 12be deff 34be 1398 dabc
00000150: c782 de3d e16f fe3d 32ce e63b de1e 18bd
00000160: 01ce 1fbe 9b67 a1bb f5fd 243e e6f1 56bc
00000170: bda1 61bd 0e82 e33d 0b4d 91bc c8f0 a6bc
00000180: c4ab 88bd 8cfc 0f3e 4fdd 73bc 7872 73bd
00000190: b2b1 003d bc4e 823d e6c5 31be 4434 9fbc
000001a0: 48cf 1fbe e629 673d 4f2f 0b3e ff72 29be
000001b0: 6bef 9abd a528 a73d e8db cfbc 93c8 073c
000001c0: ca04 e23d 6e3d 6cba 85ed 1cbe dee0 183e
000001d0: 84a7 be3c a781 2b3d 8e37 93bb 66a3 f8bd
000001e0: 1c46 14bd e56a 8fbd 32dd 863d 3959 e4bb
000001f0: b0ba b7bd c7a6 f63c d975 0a39 005e 4ebd
00000200: 1993 e83c 5e76 083e 43ba de3d 7d0d b3b9
00000210: 591d 183e 7a97 01be 21d3 933d 236a efbd
00000220: f45d e03d fe4f 8bbb 005d 8e3d fdff c9bd
00000230: c59c 993d a013 6fbc 9025 27be 97e8 babd
00000240: a06c e4bc 9142 06be daf8 e2bd bfbe 0abd
00000250: 91bf abbd b179 c13d 3d6d 183e 4cce a03c
00000260: 767e f03d 99d1 3c3d d8c8 01be 2e0d af3d
00000270: 6784 023e 7c55 2d3e ac2a 13be b247 95bd
00000280: bd30 20be 92ba c93c 9aa7 a53d 99cb a33d
00000290: 183e ca3c 3f1f 033e 87df 09be d46c b93d
000002a0: 8752 753d ef65 5bbc 2ee1 cabd 0f55 bebd
000002b0: 10a4 263e 00ec 193e 629b d3bd f153 b23d
000002c0: 4ef9 1bbe 4460 e13d a14e 553d 907e f6bb
000002d0: dc5c ffbc be05 0abe 5443 ab3d fc28 d83d
000002e0: a018 a0bd 8f70 29bd 72a4 1fbe aee9 30bd
000002f0: 7622 263e b1fd a13d 82a7 723d 39bc a43d
00000300: 7e89 09be 05af 4c3d d671 fabd 2113 bf3d
00000310: 7901 1dbe eb4f b0bd c823 3c3c fc64 bf3d
00000320: 94ec 6abc 9891 943d 6876 1ebe 1bef 07be
00000330: f2fa 1e3e d767 b43c ae27 69bd 0edb a5bd
00000340: cdab 83bd d76f 043e 6694 c9bd 7731 bfbd
00000350: 897e 033e 7af4 333e d793 2fbe fdf2 313e
00000360: ad7a 8abd b52f 1c3e 7000 183e 85ed 143d
00000370: 1ccd 5e3d 1f3a 16bd 84d2 09be fda4 e73d
00000380: 4939 833d dd5b f33d edf1 d3bd 3a45 023e
00000390: 3812 bdbd b1df 0abe e43d 14be 1715 1e3d
000003a0: c92b b7bc 6410 e23d 66a4 79bc 546c 32be
000003b0: 2a49 f6bd cf26 28be dca4 cbbc dd2e 143d
000003c0: def0 963c b50c a63d d8bc 4e3d 987d 333e
000003d0: e64b 793d dd3d 7a3d a77d 6a3d dcd1 c5bd
000003e0: 92ad bcbd 7642 313e 05f7 263e a0e2 64bd
000003f0: c194 07be 3261 69bd 0a65 6e3d 2f08 e83d

bias f4 [48]
-0.08588086 0.08107157 -0.10118527 0.15517275 -0.043397576 -0.081261165 -0.050254215 0.0823266
0.105525106 0.14773127 0.13523193 -0.06561659 0.12506552 -0.12996636 -0.058618005 -0.09895707
0.1565985 0.1385318 0.050109252 -0.120008364 -0.13519132 0.15380892 -0.13430154 -0.063298665
-0.0571836 0.1413756 -0.1587273 -0.08323425 -0.15519933 -0.03690201 -0.025542213 0.06856837
-0.050341185 -0.012572068 0.14209855 0.14031754 -0.0006591556 0.1736157 -0.018391747 0.075129665
-0.08025721 0.07933183 0.043559756 -0.02500623 0.019337839 0.11180994 0.027680764 0.036031783
00000000: 4ee2 afbd da08 a63d 393a cfbd 9be5 1e3e
00000010: a8c1 31bd 416c a6bd 5dd7 4dbd d99a a83d
00000020: 8c1d d83d de46 173e 3d7a 0a3e fe61 86bd
00000030: 2d11 003e e715 05be 6f19 70bd 01aa cabd
00000040: 5b5b 203e 48db 0d3e 5c3f 4d3d f2c6 f5bd
00000050: 986f 0abe 1680 1d3e 5886 09be bba2 81bd
00000060: 5a39 6abd c4c4 103e 6989 22be b876 aabd
00000070: 93ec 1ebe 9026 17bd e73d d1bc 936d 8c3d
00000080: 8f32 4ebd 13fb 4dbc 4882 113e 67af 0f3e
00000090: 2fcb 2cba 50c8 313e 4aaa 96bc 95dd 993d
000000a0: e45d a4bd ba78 a23d b76b 323d ded9 ccbc
000000b0: 636a 9e3c 9cfc e43d c5c2 e23c 1096 133d

weight f4 [48]
1.0 1.0 1.0 1.0 1.0 1.0 1.0 1.0
1.0 1.0 1.0 1.0 1.0 1.0 1.0 1.0
1.0 1.0 1.0 1.0 1.0 1.0 1.0 1.0
1.0 1.0 1.0 1.0 1.0 1.0 1.0 1.0
1.0 1.0 1.0 1.0 1.0 1.0 1.0 1.0
1.0 1.0 1.0 1.0 1.0 1.0 1.0 1.0
00000000: 0000 803f 0000 803f 0000 803f 0000 803f
00000010: 0000 803f 0000 803f 0000 803f 0000 803f
00000020: 0000 803f 0000 803f 0000 803f 0000 803f
00000030: 0000 803f 0000 803f 0000 803f 0000 803f
00000040: 0000 803f 0000 803f 0000 803f 0000 803f
00000050: 0000 803f 0000 803f 0000 803f 0000 803f
00000060: 0000 803f 0000 803f 0000 803f 0000 803f
00000070: 0000 803f 0000 803f 0000 803f 0000 803f
00000080: 0000 803f 0000 803f 0000 803f 0000 803f
00000090: 0000 803f 0000 803f 0000 803f 0000 803f
000000a0: 0000 803f 0000 803f 0000 803f 0000 803f
000000b0: 0000 803f 0000 803f 0000 803f 0000 803f

bias f4 [48]
0.0 0.0 0.0 0.0 0.0 0.0 0.0 0.0
0.0 0.0 0.0 0.0 0.0 0.0 0.0 0.0
0.0 0.0 0.0 0.0 0.0 0.0 0.0 0.0
0.0 0.0 0.0 0.0 0.0 0.0 0.0 0.0
0.0 0.0 0.0 0.0 0.0 0.0 0.0 0.0
0.0 0.0 0.0 0.0 0.0 0.0 0.0 0.0
00000000: 0000 0000 0000 0000 0000 0000 0000 0000
00000010: 0000 0000 0000 0000 0000 0000 0000 0000
00000020: 0000 0000 0000 0000 0000 0000 0000 0000
00000030: 0000 0000 0000 0000 0000 0000 0000 0000
00000040: 0000 0000 0000 0000 0000 0000 0000 0000
00000050: 0000 0000 0000 0000 0000 0000 0000 0000
00000060: 0000 0000 0000 0000 0000 0000 0000 0000
00000070: 0000 0000 0000 0000 0000 0000 0000 0000
00000080: 0000 0000 0000 0000 0000 0000 0000 0000
00000090: 0000 0000 0000 0000 0000 0000 0000 0000
000000a0: 0000 0000 0000 0000 0000 0000 0000 0000
000000b0: 0000 0000 0000 0000 0000 0000 0000 0000

running_mean f4 [48]
0.0 0.0 0.0 0.0 0.0 0.0 0.0 0.0
0.0 0.0 0.0 0.0 0.0 0.0 0.0 0.0
0.0 0.0 0.0 0.0 0.0 0.0 0.0 0.0
0.0 0.0 0.0 0.0 0.0 0.0 0.0 0.0
0.0 0.0 0.0 0.0 0.0 0.0 0.0 0.0
0.0 0.0 0.0 0.0 0.0 0.0 0.0 0.0
00000000: 0000 0000 0000 0000 0000 0000 0000 0000
00000010: 0000 0000 0000 0000 0000 0000 0000 0000
00000020: 0000 0000 0000 0000 0000 0000 0000 0000
00000030: 0000 0000 0000 0000 0000 0000 0000 0000
00000040: 0000 0000 0000 0000 0000 0000 0000 0000
00000050: 0000 0000 0000 0000 0000 0000 0000 0000
00000060: 0000 0000 0000 0000 0000 0000 0000 0000
00000070: 0000 0000 0000 0000 0000 0000 0000 0000
00000080: 0000 0000 0000 0000 0000 0000 0000 0000
00000090: 0000 0000 0000 0000 0000 0000 0000 0000
000000a0: 0000 0000 0000 0000 0000 0000 0000 0000
000000b0: 0000 0000 0000 0000 0000 0000 0000 0000

running_var f4 [48]
1.0 1.0 1.0 1.0 1.0 1.0 1.0 1.0
1.0 1.0 1.0 1.0 1.0 1.0 1.0 1.0
1.0 1.0 1.0 1.0 1.0 1.0 1.0 1.0
1.0 1.0 1.0 1.0 1.0 1.0 1.0 1.0
1.0 1.0 1.0 1.0 1.0 1.0 1.0 1.0
1.0 1.0 1.0 1.0 1.0 1.0 1.0 1.0
00000000: 0000 803f 0000 803f 0000 803f 0000 803f
00000010: 0000 803f 0000 803f 0000 803f 0000 803f
00000020: 0000 803f 0000 803f 0000 803f 0000 803f
00000030: 0000 803f 0000 803f 0000 803f 0000 803f
00000040: 0000 803f 0000 803f 0000 803f 0000 803f
00000050: 0000 803f 0000 803f 0000 803f 0000 803f
00000060: 0000 803f 0000 803f 0000 803f 0000 803f
00000070: 0000 803f 0000 803f 0000 803f 0000 803f
00000080: 0000 803f 0000 803f 0000 803f 0000 803f
00000090: 0000 803f 0000 803f 0000 803f 0000 803f
000000a0: 0000 803f 0000 803f 0000 803f 0000 803f
000000b0: 0000 803f 0000 803f 0000 803f 0000 803f

weight f4 [64, 48]
-0.082460105 0.0010523077 0.09607811 -0.012412578 0.031504072 0.13254464 -0.11845062 0.12140719
-0.083597675 0.09286155 -0.14388274 0.052048195 -0.14024824 0.09347768 -0.1363193 -0.05259121
-0.09642434 0.064411595 -0.0845364 0.14286397 -0.03131864 -0.023259325 0.10681945 0.009723479
-0.07611458 -0.025600838 -0.06230001 0.015683426 -0.14025734 -0.071619846 -0.07951505 -0.036730077
0.046466187 0.056830175 -0.08770222 0.097251296 -0.006820849 -0.12543811 -0.04388669 -0.072450295
0.067518726 0.042723455 -0.122443326 0.01946888 -0.04043807 0.09457254 0.0945113 -0.04403334
-0.07621111 -0.055874772 -0.14044163 0.13083503 -0.11650307 -0.13681306 0.0567667 -0.01319189
-0.07714215 0.04698508 -0.0015805264 -0.07429368 0.061019134 -0.028878618 0.092034265 0.13334244
-0.116066195 -0.06750891 0.026158547 -0.011575419 0.08243891 -0.10941452 0.0864316 -0.11315887
-0.12852931 -0.14121558 0.062305912 -0.09266855 -0.03823187 0.02136559 -0.041494712 -0.12860103
0.14340009 0.0066492157 -0.1396869 0.046487197 -0.0042843022 0.075196624 0.02706097 0.113274336
-0.033504482 -0.096670456 0.025555138 0.005929645 -0.033242825 -0.05095528 -0.06917123 0.005934153
0.09465712 -0.0056506437 0.06488441 -0.033366404 0.12673733 -0.10504098 0.087472014 -0.021169025
0.114531405 -0.040956996 0.019973285 -0.039727636 0.14335369 0.082951196 -0.03223035 -0.09765255
0.08175258 0.09061478 0.0423052 -0.12376068 0.105021544 -0.06449367 -0.018124098 0.14162494
-0.008149508 0.09000725 0.04532623 0.14398396 -0.11193961 0.13031583 -0.09383065 -0.03971485
0.1077791 0.04493279 0.13961557 -0.13700572 -0.14267658 -0.06974303 -0.012710455 0.05693038
-0.07779093 0.093226306 -0.038862996 -0.12610224 0.1174336 0.0068504442 -0.07368879 -0.03888609
-0.08927402 0.01649197 0.14355867 0.13397841 0.07277486 -0.12440618 0.12472118 0.049701724
0.035469797 0.10809074 0.045350835 0.059426203 0.124984555 0.089477435 0.12351927 0.003552102
-0.11617722 -0.0050702034 0.017906902 -0.061951358 -0.12725079 0.100028574 0.032902554 -0.08448378
0.13380404 0.07792607 0.032636233 0.08308699 0.08171722 0.11971682 -0.07986354 0.030412205
-0.04650103 -0.060431726 -0.07806629 0.026751462 0.019167354 0.025717188 -0.11281821 0.13371132
-0.07921024 0.0046930225 0.029873628 -0.0022611762 0.0957455 0.13170445 -0.11853736 -0.022873282
-0.11698899 0.08474859 -0.028003914 -0.12244181 0.09805519 0.08239163 -0.12251881 0.023746971
-0.032613676 0.05999365 0.13202485 -0.055346537 -0.05673967 -0.10047952 -0.031610508 -0.04352011
-0.07070717 0.13841577 -0.10043608 -0.1349599 0.13523638 -0.002397795 0.056989744 0.10148181
-0.14161968 0.08212439 0.10828394 -0.109873 0.10957736 -0.1436522 0.050904296 0.13942893
0.11604027 0.026206674 -0.07682593 -0.06626192 -0.10259093 0.10005002 -0.07000085 -0.021616613
-0.115132265 -0.04180052 -0.018130327 0.05074426 -0.08369537 0.0051906137 -0.050405398 -0.019479014
-0.016402738 -0.039492805 -0.13082343 -0.10614114 0.130477 0.07442598 0.13888584 0.018657427
-0.026642168 -0.018947097 0.041671045 0.11607413 0.013552793 -0.1316375 0.13029149 -0.10411998
00000000: d8e0 a8bd 96ed 893a 9ac4 c43d 205e 4bbc
00000010: 6a0a 013d c8b9 073e 3d96 f2bd 55a4 f83d
00000020: 4235 abbd 322e be3d ff55 13be 7d30 553d
00000030: 3c9d 0fbe 3a71 bf3d 4997 0bbe e169 57bd
00000040: 207a c5bd 3aea 833d 6c21 adbd ef4a 123e
00000050: f947 00bd 578a bebc 28c4 da3d 3a4f 1f3c
00000060: f6e1 9bbd d9b8 d1bc 4c2e 7fbd 877a 803c
00000070: 9f9f 0fbe 6dad 92bd c9d8 a2bd 4772 16bd
00000080: 5453 3e3d c2c6 683d 399d b3bd b02b c73d
00000090: 6e81 dfbb d972 00be 88c2 33bd d260 94bd
000000a0: 4247 8a3d cafe 2e3d 91c3 fabd 337d 9f3c
000000b0: 64a2 25bd 3faf c13d 248f c13d 4e5c 34bd
000000c0: 9214 9cbd f2dc 64bd eecf 0fbe 9ef9 053e
000000d0: 2999 eebd b918 0cbe 3384 683d cc22 58bc
000000e0: b4fc 9dbd 6d73 403d aa29 cfba 4927 98bd
000000f0: 33ef 793d da92 ecbc 767c bc3d ec8a 083e
00000100: 1db4 edbd 1d42 8abd 734a d63c d4a6 3dbc
00000110: bbd5 a83d b814 e0bd 0d03 b13d d6bf e7bd
00000120: 309d 03be d19a 10be 7c34 7f3d 02c9 bdbd
00000130: 0599 1cbd e406 af3c 5cf6 29bd fdaf 03be
00000140: 79d7 123e aae1 d93b 150a 0fbe 5c69 3e3d
00000150: 5563 8cbb b000 9a3d f8ae dd3c 60fc e73d
00000160: ff3b 09bd 29fb c5bd 0259 d13c 784d c23b
00000170: a129 08bd 7cb6 50bd a5a9 8dbd 4973 c23b
00000180: 98db c13d 0929 b9bb 1ee2 843d 36ab 08bd
00000190: 6ec7 013e ba1f d7bd 8724 b33d aa6a adbc
000001a0: 718f ea3d 86c2 27bd 049f a33c 72b9 22bd
000001b0: 4fcb 123e 51e2 a93d f903 04bd 0ffe c7bd
000001c0: e66d a73d 3e94 b93d 3848 2d3d 3d76 fdbd
000001d0: 8915 d73d 4215 84bd fd78 94bc 2106 113e
000001e0: 8485 05bc b955 b83d ffa7 393d 8870 133e
000001f0: 9840 e5bd 8371 053e 492a c0bd 0aac 22bd
00000200: 4abb dc3d 720b 383d 62f7 0e3e 3a4b 0cbe
00000210: cf19 12be 6fd5 8ebd 833f 50bc d52f 693d
00000220: da50 9fbd 6fed be3d ce2e 1fbd f220 01be
00000230: 0781 f03d b179 e03b 26ea 96bd 0547 1fbd
00000240: 4cd5 b6bd 2b1a 873c 0b01 133e a331 093e
00000250: fc0a 953d abc8 febd d16d ff3d 0994 4b3d
00000260: c748 113d ae5e dd3d ccc1 393d e468 733d
00000270: e7f7 ff3d f23f b73d acf7 fc3d 62ca 683b
00000280: 53ee edbd f323 a6bb 7fb1 923c b5c0 7dbd
00000290: 084e 02be c8db cc3d d4c4 063d d505 adbd
000002a0: ed03 093e b497 9f3d 92ad 053d 8329 aa3d
000002b0: 5c5b a73d 182e f53d 7f8f a3bd 0423 f93c
000002c0: dd77 3ebd 4287 77bd 38e1 9fbd e225 db3c
000002d0: db04 9d3c daac d23c 3c0d e7bd 9feb 083e
000002e0: fa38 a2bd edc7 993b 8ab9 f43c 3e30 14bb
000002f0: 3716 c43d 88dd 063e b7c3 f2bd c060 bbbc
00000300: ec97 efbd ab90 ad3d 7768 e5bc c6c2 fabd
00000310: 29d1 c83d f1bc a83d 24eb fabd 0289 c23c
00000320: eb95 05bd e7bb 753d 8631 073e 0db3 62bd
00000330: db67 68bd 35c8 cdbd 057a 01bd 2542 32bd
00000340: ecce 90bd ddbc 0d3e 6eb1 cdbd ee32 0abe
00000350: 687b 0a3e 5324 1dbb 146e 693d b2d5 cf3d
00000360: c004 11be d530 a83d f8c3 dd3d 1805 e1bd
00000370: 186a e03d 9019 13be 0681 503d 75c6 0e3e
00000380: 85a6 ed3d 61af d63c ea56 9dbd 54b4 87bd
00000390: 321b d2bd 06e7 cc3d 9b5c 8fbd 5315 b1bc
000003a0: 77ca ebbd 0637 2bbd 0d86 94bc 37d9 4f3d
000003b0: 7a68 abbd 0616 aa3b e475 4ebd 7492 9fbc
000003c0: 095f 86bc 35c3 21bd 94f6 05be 8760 d9bd
000003d0: c39b 053e a66c 983d 1738 0e3e 76d7 983c
000003e0: ad40 dabc f136 9bbc 42af 2a3d 46b8 ed3d
000003f0: 890c 5e3c fbcb 06be 226b 053e db3c d5bd

bias f4 [64]
-0.08915315 -0.066630825 -0.086625665 -0.05210742 0.080831714 -0.030052386 -0.123677574 -0.08672364
0.028864456 -0.14110292 -0.018397575 -0.050726227 0.016550798 0.016033437 -0.018764658 -0.010619002
-0.090558045 0.121418014 0.010242562 0.044666745 -0.113666765 -0.11825655 0.083557464 0.14370881
0.0052244416 -0.1003647 0.12760615 -0.07987471 -0.067878835 0.1051477 0.12944332 -0.1400658
0.1258998 0.053591553 -0.011315672 0.060462955 0.116008915 0.027244631 0.10739977 0.044068236
-0.057497676 0.041891236 -0.06867684 0.09420862 -0.13494861 -0.060142573 -0.008648614 -0.11226983
0.079199724 -0.06769958 -0.014689722 0.107663564 0.07097473 0.117024966 -0.13866903 0.07831807
0.12900203 0.14166486 0.008289448 -0.069354594 -0.09650478 0.09554351 -0.07466687 -0.013958778
00000000: ed95 b6bd be75 88bd cc68 b1bd 976e 55bd
00000010: 198b a53d 6c30 f6bc ab4a fdbd 2a9c b1bd
00000020: 2775 ec3c 497d 10be 83b6 96bc 4ec6 4fbd
00000030: 8a95 873c 8e58 833c 57b8 99bc 53fb 2dbc
00000040: 7f76 b9bd 02aa f83d 6bd0 273c 7af4 363d
00000050: 1fca e8bd 7d30 f2bd 2d20 ab3d 6728 133e
00000060: cb31 ab3b 028c cdbd 30ab 023e 5a95 a3bd
00000070: 0f04 8bbd ad57 d73d ca8c 043e 696d 0fbe
00000080: e1eb 003e d182 5b3d 5e65 39bc 01a8 773d
00000090: 1596 ed3d 2230 df3c 69f4 db3d e580 343d
000000a0: af82 6bbd 2596 2b3d 71a6 8cbd 73f0 c03d
000000b0: f82f 0abe 0f58 76bd ebb2 0dbc baed e5bd
000000c0: 7733 a23d 14a6 8abd 29ad 70bc b77e dc3d
000000d0: 335b 913d c9aa ef3d 41ff 0dbe 3965 a03d
000000e0: 1c19 043e 9810 113e 77d0 073c c809 8ebd
000000f0: 4ca4 c5bd 51ac c33d f2ea 98bd 5cb3 64bc

weight f4 [64]
1.0 1.0 1.0 1.0 1.0 1.0 1.0 1.0
1.0 1.0 1.0 1.0 1.0 1.0 1.0 1.0
1.0 1.0 1.0 1.0 1.0 1.0 1.0 1.0
1.0 1.0 1.0 1.0 1.0 1.0 1.0 1.0
1.0 1.0 1.0 1.0 1.0 1.0 1.0 1.0
1.0 1.0 1.0 1.0 1.0 1.0 1.0 1.0
1.0 1.0 1.0 1.0 1.0 1.0 1.0 1.0
1.0 1.0 1.0 1.0 1.0 1.0 1.0 1.0
00000000: 0000 803f 0000 803f 0000 803f 0000 803f
00000010: 0000 803f 0000 803f 0000 803f 0000 803f
00000020: 0000 803f 0000 803f 0000 803f 0000 803f
00000030: 0000 803f 0000 803f 0000 803f 0000 803f
00000040: 0000 803f 0000 803f 0000 803f 0000 803f
00000050: 0000 803f 0000 803f 0000 803f 0000 803f
00000060: 0000 803f 0000 803f 0000 803f 0000 803f
00000070: 0000 803f 0000 803f 0000 803f 0000 803f
00000080: 0000 803f 0000 803f 0000 803f 0000 803f
00000090: 0000 803f 0000 803f 0000 803f 0000 803f
000000a0: 0000 803f 0000 803f 0000 803f 0000 803f
000000b0: 0000 803f 0000 803f 0000 803f 0000 803f
000000c0: 0000 803f 0000 803f 0000 803f 0000 803f
000000d0: 0000 803f 0000 803f 0000 803f 0000 803f
000000e0: 0000 803f 0000 803f 0000 803f 0000 803f
000000f0: 0000 803f 0000 803f 0000 803f 0000 803f

bias f4 [64]
0.0 0.0 0.0 0.0 0.0 0.0 0.0 0.0
0.0 0.0 0.0 0.0 0.0 0.0 0.0 0.0
0.0 0.0 0.0 0.0 0.0 0.0 0.0 0.0
0.0 0.0 0.0 0.0 0.0 0.0 0.0 0.0
0.0 0.0 0.0 0.0 0.0 0.0 0.0 0.0
0.0 0.0 0.0 0.0 0.0 0.0 0.0 0.0
0.0 0.0 0.0 0.0 0.0 0.0 0.0 0.0
0.0 0.0 0.0 0.0 0.0 0.0 0.0 0.0
00000000: 0000 0000 0000 0000 0000 0000 0000 0000
00000010: 0000 0000 0000 0000 0000 0000 0000 0000
00000020: 0000 0000 0000 0000 0000 0000 0000 0000
00000030: 0000 0000 0000 0000 0000 0000 0000 0000
00000040: 0000 0000 0000 0000 0000 0000 0000 0000
00000050: 0000 0000 0000 0000 0000 0000 0000 0000
00000060: 0000 0000 0000 0000 0000 0000 0000 0000
00000070: 0000 0000 0000 0000 0000 0000 0000 0000
00000080: 0000 0000 0000 0000 0000 0000 0000 0000
00000090: 0000 0000 0000 0000 0000 0000 0000 0000
000000a0: 0000 0000 0000 0000 0000 0000 0000 0000
000000b0: 0000 0000 0000 0000 0000 0000 0000 0000
000000c0: 0000 0000 0000 0000 0000 0000 0000 0000
000000d0: 0000 0000 0000 0000 0000 0000 0000 0000
000000e0: 0000 0000 0000 0000 0000 0000 0000 0000
000000f0: 0000 0000 0000 0000 0000 0000 0000 0000

running_mean f4 [64]
0.0 0.0 0.0 0.0 0.0 0.0 0.0 0.0
0.0 0.0 0.0 0.0 0.0 0.0 0.0 0.0
0.0 0.0 0.0 0.0 0.0 0.0 0.0 0.0
0.0 0.0 0.0 0.0 0.0 0.0 0.0 0.0
0.0 0.0 0.0 0.0 0.0 0.0 0.0 0.0
0.0 0.0 0.0 0.0 0.0 0.0 0.0 0.0
0.0 0.0 0.0 0.0 0.0 0.0 0.0 0.0
0.0 0.0 0.0 0.0 0.0 0.0 0.0 0.0
00000000: 0000 0000 0000 0000 0000 0000 0000 0000
00000010: 0000 0000 0000 0000 0000 0000 0000 0000
00000020: 0000 0000 0000 0000 0000 0000 0000 0000
00000030: 0000 0000 0000 0000 0000 0000 0000 0000
00000040: 0000 0000 0000 0000 0000 0000 0000 0000
00000050: 0000 0000 0000 0000 0000 0000 0000 0000
00000060: 0000 0000 0000 0000 0000 0000 0000 0000
00000070: 0000 0000 0000 0000 0000 0000 0000 0000
00000080: 0000 0000 0000 0000 0000 0000 0000 0000
00000090: 0000 0000 0000 0000 0000 0000 0000 0000
000000a0: 0000 0000 0000 0000 0000 0000 0000 0000
000000b0: 0000 0000 0000 0000 0000 0000 0000 0000
000000c0: 0000 0000 0000 0000 0000 0000 0000 0000
000000d0: 0000 0000 0000 0000 0000 0000 0000 0000
000000e0: 0000 0000 0000 0000 0000 0000 0000 0000
000000f0: 0000 0000 0000 0000 0000 0000 0000 0000

running_var f4 [64]
1.0 1.0 1.0 1.0 1.0 1.0 1.0 1.0
1.0 1.0 1.0 1.0 1.0 1.0 1.0 1.0
1.0 1.0 1.0 1.0 1.0 1.0 1.0 1.0
1.0 1.0 1.0 1.0 1.0 1.0 1.0 1.0
1.0 1.0 1.0 1.0 1.0 1.0 1.0 1.0
1.0 1.0 1.0 1.0 1.0 1.0 1.0 1.0
1.0 1.0 1.0 1.0 1.0 1.0 1.0 1.0
1.0 1.0 1.0 1.0 1.0 1.0 1.0 1.0
00000000: 0000 803f 0000 803f 0000 803f 0000 803f
00000010: 0000 803f 0000 803f 0000 803f 0000 803f
00000020: 0000 803f 0000 803f 0000 803f 0000 803f
00000030: 0000 803f 0000 803f 0000 803f 0000 803f
00000040: 0000 803f 0000 803f 0000 803f 0000 803f
00000050: 0000 803f 0000 803f 0000 803f 0000 803f
00000060: 0000 803f 0000 803f 0000 803f 0000 803f
00000070: 0000 803f 0000 803f 0000 803f 0000 803f
00000080: 0000 803f 0000 803f 0000 803f 0000 803f
00000090: 0000 803f 0000 803f 0000 803f 0000 803f
000000a0: 0000 803f 0000 803f 0000 803f 0000 803f
000000b0: 0000 803f 0000 803f 0000 803f 0000 803f
000000c0: 0000 803f 0000 803f 0000 803f 0000 803f
000000d0: 0000 803f 0000 803f 0000 803f 0000 803f
000000e0: 0000 803f 0000 803f 0000 803f 0000 803f
000000f0: 0000 803f 0000 803f 0000 803f 0000 803f

weight f4 [86, 64]
0.055260897 0.053676873 0.014988467 0.10462093 -0.0006430298 0.039623603 0.046839684 -0.017562196
-0.08818188 0.073766544 0.04140225 0.0973832 0.12167388 -0.058730304 0.10888572 0.09161197
0.049702734 -0.033641696 -0.094790995 0.06853837 -0.034448817 -0.0026376396 -0.095241606 0.043138564
0.048290312 0.05758956 0.017789379 0.11229202 0.07291557 0.032337442 -0.11447504 0.081440866
0.09043217 -0.039623857 0.06484872 -0.102491036 0.10684526 0.077034324 0.11521922 -0.029375017
0.0154002905 -0.114579335 -0.10509817 -0.0608882 -0.07858476 0.0113230795 -0.043700427 -0.097565934
0.09699619 -0.019783571 0.08689569 0.11725773 0.12407939 0.026053816 -0.12487866 -0.01644899
0.03450623 -0.047120422 0.01716441 -0.09591311 0.074817985 -0.024319023 -0.0013882071 -0.12385343
-0.09631659 0.03188321 -0.01504007 -0.09340525 0.11516799 -0.04131493 0.032800704 0.069940776
-0.047112316 0.06112112 -0.094228044 0.02831769 -0.10655752 0.036267564 -0.08873704 -0.109368995
-0.024913535 -0.04754433 -0.120371416 -0.06017466 0.09751797 0.063198134 -0.07421009 0.04847713
-0.041060746 -0.033756107 -0.124100044 0.08179277 -0.12073369 0.014000416 0.06773074 -0.06399709
-0.12429012 -0.048442513 -0.074627906 0.11597176 0.11133884 -0.003795579 -0.072414696 0.02140604
0.0454192 -0.080532104 0.08698778 0.12029494 0.011697486 -0.01124315 -0.03793104 0.10295272
0.0016792119 -0.043377265 -0.04171367 -0.04928188 0.09838325 -0.101535976 -0.036594525 0.11240703
0.033211306 0.10950525 -0.08294012 -0.0911051 -0.05663666 -0.10954741 -0.09188017 0.08435021
-0.07276833 0.012184024 0.03764242 -0.047710896 0.0384444 -0.07092196 -0.11313902 0.11951737
0.08322114 -0.006577611 -0.06299296 -0.10923165 0.031702742 -0.06397247 0.09154563 -0.014575988
0.11133093 0.070786044 0.11598684 -0.036787584 -0.04958287 -0.019507349 -0.05648616 -0.10352312
-0.12317096 0.12396993 -0.046240777 0.002513796 0.0491852 0.02043663 -0.10722494 0.09204613
0.03970182 0.05487901 -0.065969005 -0.12088077 -0.08825396 0.03509505 0.036971495 -0.074750304
0.05495085 0.10627501 -0.05106978 0.04585749 -0.032220706 -0.0015555173 -0.013640359 -0.08385654
0.001393795 0.08495627 0.099580005 0.02703102 -0.0062524825 -0.123079374 -0.12288576 -0.104094535
0.077679455 0.05849251 -0.09299055 -0.012848988 -0.023740813 0.01789327 0.021546125 -0.059511796
0.012391597 -0.027344584 -0.00018016994 0.09726992 0.041085318 -0.016506195 -0.085958496 0.0048196167
0.103680715 -0.035216168 0.05106792 -0.0646722 -0.06572692 0.011373654 0.011472672 0.046081334
-0.06156902 0.019021735 -0.003429547 0.075098604 0.026124462 0.07964572 0.061006993 -0.027951926
0.04858677 0.08215067 -0.036282286 0.05775383 -0.030753419 0.036292404 -0.06832753 0.012083814
-0.061324418 -0.08387858 0.11516437 0.028564677 0.07277408 -0.03689882 -0.013137743 -0.085128635
0.06072487 0.039358214 -0.057123125 -0.014192626 0.04130189 0.102253556 0.029627949 -0.01377143
0.0013866574 -0.003995687 -0.10789868 0.098618776 -0.060125276 0.04113297 -0.02880992 -0.007062614
-0.09746455 0.08411516 0.059706286 -0.07630198 -0.10732414 -0.113960534 -0.08433862 0.013818026
00000000: 4059 623d 48dc 5b3d 3092 753c 8043 d63d
00000010: 0091 28ba 5c4c 223d f8da 3f3d 98de 8fbc
00000020: b498 b4bd ea12 973d 6895 293d d870 c73d
00000030: 2830 f93d 308f 70bd 7aff de3d 0e9f bb3d
00000040: 1895 4b3d e0cb 09bd c821 c2bd d85d 8c3d
00000050: 341a 0dbd 40dc 2cbb 080e c3bd 10b2 303d
00000060: 10cc 453d 08e3 6b3d 08bb 913c 5cf9 e53d
00000070: c254 953d 4474 043d e471 eabd 78ca a63d
00000080: 8034 b93d a04c 22bd 68cf 843d d2e6 d1bd
00000090: b0d1 da3d 2cc4 9d3d 0ef8 eb3d e0a3 f0bc
000000a0: 8051 7c3c 92a8 eabd b63d d7bd e865 79bd
000000b0: 0cf1 a0bd 7084 393c 38ff 32bd a6d0 c7bd
000000c0: f0a5 c63d 2811 a2bc 5ef6 b13d d224 f03d
000000d0: 561d fe3d d06e d53c 62c0 ffbd 08c0 86bc
000000e0: 6856 0d3d 5801 41bd 609c 8c3c 186e c4bd
000000f0: 2c3a 993d b038 c7bc 80f4 b5ba dea6 fdbd
00000100: a241 c5bd f897 023d a06a 76bc 404b bfbd
00000110: 32dd eb3d d839 29bd 085a 063d 1c3d 8f3d
00000120: d8f8 40bd 245a 7a3d a2fa c0bd 80fa e73c
00000130: d43a dabd 4c8d 143d c4bb b5bd dafc dfbd
00000140: 7817 ccbc d8bd 42bd 4a85 f6bd b479 76bd
00000150: 80b7 c73d 066e 813d 76fb 97bd f48f 463d
00000160: 502f 28bd d843 0abd 2a28 febd f882 a73d
00000170: 3a43 f7bd 0062 653c 6ab6 8a3d e810 83bd
00000180: d28b febd a86b 46bd 84d6 98bd 9a82 ed3d
00000190: 9e05 e43d 40bf 78bb 284e 94bd b85b af3c
000001a0: 7c09 3a3d 04ee a4bd a626 b23d 325d f63d
000001b0: d0a6 3f3c 3035 38bc 945d 1bbd e0d8 d23d
000001c0: 0019 dc3a 5cac 31bd f4db 2abd ccdb 49bd
000001d0: 287d c93d 18f2 cfbd 24e4 15bd a835 e63d
000001e0: 9408 083d 4a44 e03d 82dc a9bd 5095 babd
000001f0: d8fb 67bd 645a e0bd ac2b bcbd cebf ac3d
00000200: 9007 95bd 809f 473c f02e 1a3d 806c 43bd
00000210: e077 1d3d 883f 91bd 6eb5 e7bd 86c5 f43d
00000220: d86f aa3d 0089 d7bb 7402 81bd d8b4 dfbd
00000230: bcda 013d 0004 83bd 467c bb3d 20d0 6ebc
00000240: 7801 e43d 46f8 903d 828a ed3d 94ae 16bd
00000250: 6817 4bbd e0cd 9fbc 085e 67bd ee03 d4bd
00000260: 0e41 fcbd f2e3 fd3d f866 3dbd 80be 243b
00000270: 6c76 493d b86a a73c c098 dbbd ae82 bc3d
00000280: 609e 223d d0c8 603d c21a 87bd 5690 f7bd
00000290: 7ebe b4bd d4bf 0f3d 6c6f 173d b016 99bd
000002a0: 2414 613d b6a6 d93d 8c2e 51bd 10d5 3b3d
000002b0: dcf9 03bd 80e2 cbba d07b 5fbc fabc abbd
000002c0: 00b0 b63a 8efd ad3d 9af0 cb3d 2870 dd3c
000002d0: a0e1 ccbb 0a11 fcbd 88ab fbbd 842f d5bd
000002e0: 6816 9f3d d895 6f3d d471 bebd 9084 52bc
000002f0: 187c c2bc e894 923c 8081 b03c a4c2 73bd
00000300: 2006 4b3c c001 e0bc 00ec 3cb9 7435 c73d
00000310: 1449 283d 0038 87bc 020b b0bd e0ed 9d3b
00000320: 8e56 d43d d43e 10bd 982c 513d dc72 84bd
00000330: d69b 86bd 9058 3a3c e0f7 3b3c c8bf 3c3d
00000340: cc2f 7cbd 78d3 9b3c 40c2 60bb 4ccd 993d
00000350: f802 d63c 4c1d a33d 78e2 793d 70fb e4bc
00000360: ec02 473d 9c3e a83d bc9c 14bd 488f 6c3d
00000370: 98ee fbbc 58a7 143d 4eef 8bbd 30fb 453c
00000380: 502f 7bbd 88c8 abbd 4cdb eb3d 7800 ea3c
00000390: 940a 953d 3823 17bd b03f 57bc ec57 aebd
000003a0: a4ba 783d 1436 213d f0f9 69bd 3088 68bc
000003b0: 2c2c 293d 506a d13d 50b6 f23c 90a1 61bc
000003c0: 80c0 b53a 40ee 82bb fcf9 dcbd a4f8 c93d
000003d0: ec45 76bd 0c7b 283d c802 ecbc 806d e7bb
000003e0: 7e9b c7bd 9244 ac3d 948e 743d 3644 9cbd
000003f0: c2cc dbbd 2464 e9bd bab9 acbd 0065 623c

bias f4 [86]
0.11002444 -0.0018735975 -0.1239135 -0.07173902 0.014154568 0.034579635 -0.105663955 -0.015292048
0.020418927 0.08765063 0.059762836 -0.103789166 0.033401117 -0.10708785 -0.0015254319 -0.09216367
-0.080784455 -0.10345577 0.04730591 0.042159498 -0.066917345 0.033394873 0.093225926 0.01152195
-0.08842403 -0.03991501 0.04489976 0.02742818 -0.05462715 0.06472732 0.1073741 0.013676271
0.10071963 0.06763223 -0.012097806 -0.008743644 0.118902594 0.10898046 -0.039301664 -0.016008332
-0.016156673 0.06951508 0.09888291 -0.021791905 0.105498955 0.071449414 0.076531425 -0.00036379695
0.06710023 0.065185204 -0.028610751 0.11716241 0.1107226 0.043269813 -0.11868231 0.004831761
-0.05305691 0.07405192 0.1043223 0.07103144 0.0043810904 -0.004125908 0.009778559 0.08167027
0.07950589 -0.060307518 -0.048605382 -0.10958885 -0.11008884 -0.04353881 0.115469515 -0.083544984
0.008845225 -0.07063104 0.009466708 -0.035789713 0.054055125 -0.031600475 0.0611192 -0.11712356
-0.03590046 -0.022973523 -0.0962403 0.087009504 0.009482086 -0.034640998
00000000: 7e54 e13d 8093 f5ba 5cc6 fdbd e8eb 92bd
00000010: 90e8 673c 60a3 0d3d 5866 d8bd 808b 7abc
00000020: 9845 a73c 2c82 b33d e0c9 743d 6a8f d4bd
00000030: 9ccf 083d e050 dbbd 00f1 c7ba 4ec0 bcbd
00000040: 5272 a5bd 9ee0 d3bd d8c3 413d 70af 2c3d
00000050: f60b 89bd 10c9 083d 3ced be3d 90c6 3c3c
00000060: a817 b5bd ec7d 23bd d0e8 373d 10b1 e03c
00000070: b8c0 5fbd c28f 843d f4e6 db3d 7012 603c
00000080: 1846 ce3d c482 8a3d e035 46bc 8041 0fbc
00000090: 3483 f33d 2631 df3d c8fa 20bd e823 83bc
000000a0: 005b 84bc ec5d 8e3d 2083 ca3d f084 b2bc
000000b0: d60f d83d 1254 923d 82bc 9c3d 00bc beb9
000000c0: d86b 893d d27f 853d 1861 eabc d8f2 ef3d
000000d0: 88c2 e23d b03b 313d b60f f3bd c053 9e3b
000000e0: 3452 59bd 88a8 973d eea6 d53d ee78 913d
000000f0: 408f 8f3b a032 87bb 4036 203c be42 a73d
00000100: fcd3 a23d 0405 77bd 7016 47bd 1e70 e0bd
00000110: 4276 e1bd c055 32bd 487b ec3d a219 abbd
00000120: 90eb 103c 02a7 90bd 401a 1b3c 3c98 12bd
00000130: e868 5d3d 806f 01bd 2058 7a3d 7ade efbd
00000140: 5c0c 13bd f832 bcbc a219 c5bd 0a32 b23d
00000150: c05a 1b3c b8e3 0dbd

weight f4 [86]
1.0 1.0 1.0 1.0 1.0 1.0 1.0 1.0
1.0 1.0 1.0 1.0 1.0 1.0 1.0 1.0
1.0 1.0 1.0 1.0 1.0 1.0 1.0 1.0
1.0 1.0 1.0 1.0 1.0 1.0 1.0 1.0
1.0 1.0 1.0 1.0 1.0 1.0 1.0 1.0
1.0 1.0 1.0 1.0 1.0 1.0 1.0 1.0
1.0 1.0 1.0 1.0 1.0 1.0 1.0 1.0
1.0 1.0 1.0 1.0 1.0 1.0 1.0 1.0
1.0 1.0 1.0 1.0 1.0 1.0 1.0 1.0
1.0 1.0 1.0 1.0 1.0 1.0 1.0 1.0
1.0 1.0 1.0 1.0 1.0 1.0
00000000: 0000 803f 0000 803f 0000 803f 0000 803f
00000010: 0000 803f 0000 803f 0000 803f 0000 803f
00000020: 0000 803f 0000 803f 0000 803f 0000 803f
00000030: 0000 803f 0000 803f 0000 803f 0000 803f
00000040: 0000 803f 0000 803f 0000 803f 0000 803f
00000050: 0000 803f 0000 803f 0000 803f 0000 803f
00000060: 0000 803f 0000 803f 0000 803f 0000 803f
00000070: 0000 803f 0000 803f 0000 803f 0000 803f
00000080: 0000 803f 0000 803f 0000 803f 0000 803f
00000090: 0000 803f 0000 803f 0000 803f 0000 803f
000000a0: 0000 803f 0000 803f 0000 803f 0000 803f
000000b0: 0000 803f 0000 803f 0000 803f 0000 803f
000000c0: 0000 803f 0000 803f 0000 803f 0000 803f
000000d0: 0000 803f 0000 803f 0000 803f 0000 803f
000000e0: 0000 803f 0000 803f 0000 803f 0000 803f
000000f0: 0000 803f 0000 803f 0000 803f 0000 803f
00000100: 0000 803f 0000 803f 0000 803f 0000 803f
00000110: 0000 803f 0000 803f 0000 803f 0000 803f
00000120: 0000 803f 0000 803f 0000 803f 0000 803f
00000130: 0000 803f 0000 803f 0000 803f 0000 803f
00000140: 0000 803f 0000 803f 0000 803f 0000 803f
00000150: 0000 803f 0000 803f
